v1/lstm_model.tflite (tflite, 591728 bytes, 24 tensors)

sequential/dense/MatMul;sequential/dense/Relu;sequential/dense/BiasAdd f4 [32]
0	0x3dc97792	0.09837259
1	0x3f3436eb	0.703963
2	0xbd8b9188	-0.06814867
3	0x3e3e454a	0.18581119
4	0xbf0a97c0	-0.541378
5	0xbcceea18	-0.025258109
6	0x3d28e1de	0.04123103
7	0xbef6ca8d	-0.4820141
8	0xbd84afd4	-0.06478849
9	0x3eda187e	0.4259681
10	0x3e6e8d86	0.23296174
11	0x3f80cabb	1.0061868
12	0xbf050ad5	-0.51969653
13	0xbe858049	-0.26074436
14	0xbf4ef620	-0.80844307
15	0x3e0b46fd	0.13601299
16	0x3e024d8f	0.12724899
17	0x3f478956	0.77943933
18	0x3f065f2e	0.5248898
19	0xbc192655	-0.009347518
20	0xbe03746a	-0.12837377
21	0x3e991ce2	0.29904848
22	0x3f3083cd	0.6895111
23	0xbf40144b	-0.75030965
24	0xbdfdb4fb	-0.12388035
25	0xbe65bd2d	-0.22435446
26	0xbf1e56a9	-0.6185098
27	0xbe4a59b1	-0.19760777
28	0x3f33cafa	0.7023159
29	0x3e9b06d4	0.30278647
30	0xbefeafb9	-0.4974344
31	0xbf2cadb0	-0.67452526

sequential/batch_normalization_1/batchnorm/mul_1;sequential/batch_normalization_1/batchnorm/add_1;sequential/dense/MatMul;sequential/dense/Relu;sequential/dense/BiasAdd f4 [32, 32]
0	0x3f135608	0.5755315
1	0x3f3f531c	0.7473619
2	0xbf0b5a50	-0.5443468
3	0x3f296629	0.6617151
4	0xbf0b634b	-0.54448384
5	0x3e97734c	0.29580152
6	0x3f433699	0.76255184
7	0xbf1fc8fe	-0.62416065
8	0xbc7e9fe4	-0.015541051
9	0xbf3570a0	-0.7087498
10	0x3f03c30d	0.514695
11	0xbf5328cb	-0.8248412
12	0xbeb954f8	-0.3619764
13	0x3d89de3a	0.067318395
14	0x3e09d9cc	0.13461989
15	0xbf8c0a8b	-1.0940717
16	0xbc5ad4fd	-0.013356444
17	0x3e995452	0.29947144
18	0x3e80049e	0.25003523
19	0xbe50e479	-0.20399655
20	0x3f0aa9ac	0.5416515
21	0xbf45cb8e	-0.77263725
22	0xbf26fb89	-0.6522756
23	0xbeebb49e	-0.46036237
24	0xbe996f5b	-0.2996777
25	0xbe8fa55b	-0.28055844
26	0x3f104f1c	0.5637071
27	0xbf8ba4cc	-1.0909667
28	0xbf03f90d	-0.51551896
29	0xbe6d8dea	-0.23198667
30	0xbf0d5e0a	-0.5522162
31	0xbf2fcdb2	-0.6867324
32	0xbf6366a0	-0.8882847
33	0x3e81f624	0.25383103
34	0xbf6b9b38	-0.9203372
35	0xbf3fddbd	-0.7494772
36	0xbe597cae	-0.21238968
37	0x3e1dbac7	0.15403281
38	0x3efb418a	0.4907344
39	0x3e3d789d	0.18503042
40	0xbebb3f6d	-0.36571828
41	0xbf358561	-0.70906645
42	0x3f0c8dda	0.5490395
43	0x3e161fa7	0.14660512
44	0xbeba3618	-0.36369395
45	0x3f27e8e3	0.6558973
46	0xbd79073a	-0.060797907
47	0x3f20937c	0.62725043
48	0xbd7ecc73	-0.062206697
49	0x3e738371	0.2378061
50	0xbeb21798	-0.34783626
51	0xbfb5b6e9	-1.4196445
52	0xbd7f98bf	-0.06240153
53	0xbf24b4d6	-0.64338434
54	0xbf3c9906	-0.73670995
55	0xbf0266ac	-0.50937915
56	0x3f2b0005	0.66796905
57	0x3e501a68	0.20322573
58	0xbf264491	-0.64948374
59	0xbdcaee17	-0.09908693
60	0x3f885c15	1.0653101
61	0xbebc7b0c	-0.36812627
62	0x3e6169fd	0.22013088
63	0x40027212	2.0382123
64	0xbf0e787a	-0.5565258
65	0xbf4118ff	-0.75428766
66	0x3f0845f8	0.53231764
67	0x3e82ad67	0.2552292
68	0x3f20baa8	0.62784815
69	0xbed17392	-0.40908486
70	0x3ecbef27	0.39830896
71	0xbf2f58f9	-0.68495136
72	0xbc26a26d	-0.010170561
73	0xbe2b6d9b	-0.1674103
74	0xbef7925b	-0.48353848
75	0xbeba670c	-0.36406744
76	0x3e9619f2	0.2931667
77	0x3ea2f4b4	0.3182732
78	0xbc86c79a	-0.0164526
79	0x3efc6a64	0.4929992
80	0xbedaffb8	-0.42773223
81	0x3f082033	0.5317413
82	0xbf4b2fd3	-0.7936985
83	0xbeb980f6	-0.36231202
84	0xbf22772b	-0.63463086
85	0xbee3ec71	-0.44516328
86	0xbe220437	-0.1582192
87	0x3de801d9	0.113284774
88	0xbd0030aa	-0.03129641
89	0x3cc86e2b	0.024466595
90	0xbf2ec589	-0.68270165
91	0x3f803a3f	1.0017775
92	0xbfb0dace	-1.3816774
93	0xbec4a5de	-0.38407797
94	0xbead645e	-0.33865637
95	0x3fee3da4	1.8612561
96	0xbf0d156b	-0.55110806
97	0xbef9f7d3	-0.48821887
98	0x3f154223	0.5830404
99	0xbf39b6d5	-0.72544605
100	0xbf4c0fa6	-0.7971138
101	0x3ee5f13c	0.4491061
102	0x3f10da8a	0.56583464
103	0x3f26940b	0.65069646
104	0x3ed8973f	0.42302892
105	0xbefa8f9c	-0.4893769
106	0xb9d6125e	-0.00040830945
107	0xbeb64944	-0.35602772
108	0x3edea7ac	0.43487298
109	0xbf516821	-0.81799513
110	0xbeee26f2	-0.46514088
111	0xbf85c484	-1.0450597
112	0xbe0769d0	-0.13223958
113	0x3eb0ed25	0.34555927
114	0xbef47c91	-0.47751287
115	0xbf6b981f	-0.92028993
116	0x3e7ebf0b	0.24877565
117	0x3f44b125	0.768328
118	0xbf35736a	-0.7087923
119	0x3edfaff0	0.43688917
120	0xbeb2343f	-0.34805486
121	0xbefecc30	-0.49765158
122	0x3ed9893d	0.42487517
123	0x3f86f570	1.0543652
124	0x3ee666ae	0.45000213
125	0x3f097ef7	0.5370936
126	0x3db11f35	0.086485304
127	0xc018ba2b	-2.3863628
128	0x3f96898f	1.176073
129	0xbe8e71a8	-0.27821088
130	0x3f362ff7	0.7116694
131	0xbeab830e	-0.33498424
132	0xbeaf5624	-0.34245408
133	0x3e6af612	0.22945431
134	0xbf1fef1e	-0.6247424
135	0x3f0a5ac8	0.5404477
136	0x3ef19573	0.47184333
137	0x3ef540a7	0.47900888
138	0x3f066370	0.5249548
139	0x3f90e61d	1.1320225
140	0xbefbd9f5	-0.49189726
141	0xbe84ef8f	-0.2596402
142	0x3eaf7166	0.34266204
143	0xbeeec8e7	-0.4663765
144	0xbedd3682	-0.4320565
145	0xbde81268	-0.11331636
146	0x3eb1eceb	0.34751067
147	0x3fa3c227	1.2793626
148	0x3d536191	0.05160672
149	0x3e819d3c	0.25315273
150	0x3e1bb635	0.15206225
151	0xbdee24d8	-0.11628121
152	0x3f0ef4cd	0.55842286
153	0xbf14f12c	-0.581805
154	0xbf12bee4	-0.57322526
155	0xbca2d480	-0.019876719
156	0x3f4e82ab	0.80668133
157	0xbebe43bf	-0.3716106
158	0x3ef20c0d	0.4727482
159	0x40040d3d	2.063308
160	0xbeb4b8ed	-0.35297337
161	0xbf116da1	-0.56807905
162	0x3f12d6cb	0.57359
163	0x3ecd092d	0.40046063
164	0xbee3906d	-0.44446126
165	0x3f080788	0.5313649
166	0x3e07184f	0.13192867
167	0xbf076728	-0.5289178
168	0x3d931bb9	0.07183022
169	0xbf257f41	-0.646473
170	0xbebcb41f	-0.3685617
171	0x3f556b50	0.8336687
172	0x3e7c4a2d	0.24637671
173	0xbf3fa52f	-0.74861425
174	0x3ef01e9f	0.46898362
175	0x3f973ef4	1.1816087
176	0x3e9c7988	0.3056147
177	0xbeed77b9	-0.46380404
178	0xbf21d2aa	-0.6321207
179	0xbf43f9a1	-0.7655278
180	0xbf063d78	-0.52437544
181	0xbdbfe26f	-0.09369361
182	0x3f78d1d6	0.97195184
183	0x3ce54ef0	0.027991742
184	0xbee73f95	-0.45165697
185	0x3eeaa4f8	0.45828986
186	0xbf260fb6	-0.64867723
187	0x3f0ea2c2	0.557171
188	0xbfd56c82	-1.6673739
189	0x3ef29d07	0.47385427
190	0xbe998dcf	-0.29991004
191	0x3fd9951a	1.6998627
192	0xbf843bdf	-1.0330771
193	0xbe150828	-0.14553893
194	0x3f322d29	0.6960016
195	0x3b8ee0d1	0.0043602963
196	0xbf327b41	-0.6971932
197	0xbe7dd3a2	-0.24787763
198	0xbf2ee476	-0.68317354
199	0x3cf734d2	0.030176554
200	0x3f2a737a	0.66582453
201	0x3e3147fb	0.17312615
202	0x3f370d7d	0.71504956
203	0x3f19493f	0.5987739
204	0xbe8d309b	-0.27576146
205	0x3ebf5734	0.37371218
206	0x3ef56939	0.4793184
207	0x3f3b8280	0.73246
208	0xbe70b56c	-0.23506707
209	0x3c9532e7	0.018212749
210	0x3e6ce1eb	0.23133056
211	0xbf66553e	-0.8997382
212	0x3f322be8	0.69598246
213	0x3f218a88	0.63102007
214	0x3f356acf	0.708661
215	0xbf1f1bdc	-0.62151885
216	0xbea0d7b9	-0.31414583
217	0x3df5b4e2	0.11997391
218	0x3f375f1f	0.7162952
219	0x3f3e95f9	0.7444759
220	0x3fb1f456	1.390269
221	0x3e84d299	0.25941923
222	0xbf047e2c	-0.51755023
223	0x3eed93d9	0.4640186
224	0xbf9d5556	-1.2291667
225	0xbf29d489	-0.6633993
226	0xbccb8df9	-0.024847971
227	0xbf515fc0	-0.8178673
228	0xbe144ae1	-0.14481689
229	0x3f13f07f	0.5778884
230	0xbef6d9e5	-0.48213115
231	0xbf1a827c	-0.60355353
232	0xbf3d6fd7	-0.7399878
233	0xbe153605	-0.14571388
234	0xbdbf5f6b	-0.093443714
235	0x3f6048ed	0.87611276
236	0x3d1297c3	0.035789263
237	0x3ed1fef2	0.4101482
238	0xbdf80c71	-0.12111748
239	0x3f23de7b	0.64011353
240	0x3f0cb216	0.5495924
241	0xbef2a096	-0.47388142
242	0x3e1fdecf	0.15612338
243	0x3d805d4f	0.06267797
244	0xbd6a57e5	-0.05721273
245	0xbca865bf	-0.020556329
246	0xbf934712	-1.1506064
247	0x3d8e1aee	0.0693873
248	0x3e2274ae	0.15864822
249	0x3f05f218	0.5232253
250	0xbed9c8e6	-0.42536086
251	0xbf205329	-0.6262689
252	0x3f76c72e	0.96397674
253	0x3ea2bc1a	0.31784135
254	0xbd732144	-0.059357896
255	0xbff5a2e4	-1.9190335

sequential/batch_normalization/batchnorm/sub f4 [128]
0	0xbf7a763b	-0.97836655
1	0xbf9a0da3	-1.2035412
2	0x3fed5dbf	1.8544234
3	0xbff4f240	-1.9136429
4	0xbef2b208	-0.47401452
5	0xbe65e270	-0.2244966
6	0x40522f99	3.2841551
7	0x3f01fbde	0.50774944
8	0xbe9909f8	-0.29890418
9	0x3e400ef7	0.18755709
10	0x3f651b36	0.89494646
11	0xc024d977	-2.575773
12	0xbfea9d6a	-1.8329289
13	0xc02d09b7	-2.703718
14	0x3f190ece	0.59788215
15	0xbe9be85c	-0.30450714
16	0x403bde63	2.9354484
17	0xbf867687	-1.0504922
18	0x3ce3ba95	0.02779893
19	0xbfcec6c3	-1.6154407
20	0x3f417bb5	0.75579387
21	0xbe472530	-0.1944778
22	0x3f99c22f	1.2012385
23	0xbf6850b6	-0.90748155
24	0xc03f6671	-2.9906275
25	0x3fcb3bda	1.587764
26	0x3f85fe8c	1.0468307
27	0x3e8cc4c6	0.27493876
28	0xbfe669ae	-1.8001001
29	0xbe80fa20	-0.2519083
30	0x3f846e11	1.034609
31	0xc0014b39	-2.0202162
32	0x40337e03	2.8045661
33	0x3fb93d0c	1.4471755
34	0x402f5436	2.7395148
35	0x3fa06ac9	1.2532588
36	0xbf693dc0	-0.9110985
37	0xbf99afa6	-1.2006729
38	0xbfa5d782	-1.2956393
39	0xbd8e7192	-0.069552556
40	0x3f84ee31	1.038519
41	0xbf8f8c16	-1.1214626
42	0x3fd5ad9e	1.6693609
43	0x3fc7dae5	1.5613676
44	0x3f0caa77	0.5494761
45	0x3e49a676	0.19692406
46	0x4010ab3b	2.260451
47	0xbf49217b	-0.7856671
48	0x3e5c5373	0.21516208
49	0x3f856441	1.042122
50	0x3fc1d05f	1.5141715
51	0xbfbaeaa0	-1.4602852
52	0xbf673e1f	-0.90329164
53	0xbff36e3b	-1.9018015
54	0x3ff91be8	1.9461641
55	0xc01e546a	-2.4739022
56	0x401e40c0	2.472702
57	0xbfc75870	-1.5573864
58	0xbf26a2c5	-0.65092117
59	0xbf8588c0	-1.0432358
60	0x3f5944f2	0.8487083
61	0xbfde9d05	-1.7391669
62	0x3ff10fc1	1.8832933
63	0xbf17440b	-0.590882
64	0xbec7fc6d	-0.39059773
65	0xbefb0173	-0.49024543
66	0x3ea0c4c1	0.3140011
67	0x3fb31a66	1.3992431
68	0xbeef7573	-0.46769294
69	0xbf825d41	-1.0184709
70	0x3fa5fffc	1.2968745
71	0x3fdd18db	1.727321
72	0xbe422c77	-0.18962274
73	0xbf86df09	-1.0536815
74	0x400153fc	2.020751
75	0x3fec306f	1.8452281
76	0x3f16ab49	0.5885511
77	0xbdd1317b	-0.10214516
78	0xbdf8470f	-0.12122928
79	0x3f53e18f	0.8276605
80	0x4003dd16	2.060369
81	0xbfc66330	-1.549902
82	0x3fecfbd7	1.8514355
83	0x401646ec	2.3480787
84	0xbf5c0617	-0.8594679
85	0xbf0edbfc	-0.5580442
86	0xbfbffd65	-1.4999205
87	0xbf901b3e	-1.1258314
88	0xbe4b3783	-0.19845395
89	0xbfdcac56	-1.7240093
90	0xbfefeb9f	-1.8743781
91	0x3fd89188	1.6919413
92	0xc03a374b	-2.9096248
93	0xc044d7b2	-3.075665
94	0x3fbc706f	1.4721812
95	0x3f2d0e59	0.6760002
96	0xbfa8c91c	-1.3186374
97	0xbe9c332d	-0.30507794
98	0xbf36ea8e	-0.7145165
99	0xbf096a9f	-0.53678316
100	0xbe7ed270	-0.24884963
101	0xbfab28a0	-1.3371773
102	0x3da9765c	0.082745284
103	0x3f5be734	0.8589966
104	0xbf9f7ac4	-1.245934
105	0x3deb6648	0.11494118
106	0x3f039325	0.513964
107	0x3f8afeb8	1.0858984
108	0x3e88ee09	0.26744106
109	0x3f032f38	0.51243925
110	0x3fec75bd	1.8473431
111	0xbf227c2c	-0.6347072
112	0x3f5f227b	0.8716199
113	0x3fa6d4ed	1.303373
114	0xbfc21e50	-1.5165501
115	0x3f046555	0.5171712
116	0xbf893b42	-1.0721209
117	0xbcb4c921	-0.022068562
118	0xbfaeb125	-1.364781
119	0x3e8ef0e8	0.27918172
120	0xbf96d8b8	-1.1784887
121	0x3f28cbbe	0.65935886
122	0x3e98a798	0.29815364
123	0xbee76eb7	-0.45201656
124	0x3f3b4fda	0.7316872
125	0xbfbb8155	-1.4648844
126	0xbf921277	-1.1411885
127	0xbf98346d	-1.1890999

sequential/batch_normalization/batchnorm/mul f4 [128]
0	0x412e6295	10.899068
1	0x40c0e90b	6.0284476
2	0x40eec38a	7.4613695
3	0x4109d15c	8.613613
4	0x40b16c35	5.544459
5	0x409f0b1b	4.9701056
6	0x41138aab	9.2213545
7	0x409a10ab	4.8145347
8	0x4104aa2b	8.291545
9	0x40ae51fb	5.4475074
10	0x40c44942	6.1339426
11	0x41042d84	8.261112
12	0x409e29d7	4.9426074
13	0x40e4e6d4	7.1531773
14	0x40f3871b	7.6102424
15	0x405d58d6	3.458547
16	0x40c8334f	6.2562633
17	0x40b2dbab	5.589315
18	0x40c6ad60	6.208664
19	0x412449e2	10.268038
20	0x40903aee	4.5071936
21	0x40a6ad8f	5.2086864
22	0x4123972c	10.224407
23	0x4130507c	11.0196495
24	0x41234c8a	10.206186
25	0x40de39b5	6.9445443
26	0x40d14ca5	6.540606
27	0x40b32cba	5.59921
28	0x4120e92f	10.05693
29	0x40e5d9fe	7.1828604
30	0x4057e665	3.3734372
31	0x40ed7852	7.4209375
32	0x40a0aedd	5.0213456
33	0x40ebcf74	7.369074
34	0x40b8c674	5.774225
35	0x40fd5855	7.9170327
36	0x409bed04	4.8726826
37	0x41440af9	12.252679
38	0x40f89837	7.768581
39	0x40567a3a	3.35121
40	0x41049659	8.286706
41	0x40cd0451	6.406777
42	0x409fe3af	4.9965434
43	0x40c958f6	6.2921095
44	0x40e5ded2	7.1834497
45	0x40c06f7f	6.0136104
46	0x40fa1d8d	7.8161073
47	0x40b91e86	5.784976
48	0x40a0fb51	5.0306783
49	0x41076955	8.463216
50	0x40eb5daa	7.3551836
51	0x40a60133	5.1876464
52	0x40dfe3c7	6.996555
53	0x40e86435	7.2622323
54	0x4126e0f6	10.429922
55	0x40dfef42	6.9979563
56	0x40f503b2	7.656701
57	0x41207855	10.029378
58	0x40e2a70f	7.082893
59	0x409c3d66	4.882495
60	0x409016be	4.502776
61	0x40e5aca0	7.1773224
62	0x40d8599b	6.760938
63	0x411c8ad5	9.783895
64	0x40c436ef	6.1317058
65	0x4138d69d	11.552396
66	0x41106e84	9.026981
67	0x4086ea5a	4.2161074
68	0x408a44bd	4.320891
69	0x40b6622d	5.6994843
70	0x412574eb	10.341044
71	0x412f2a41	10.947816
72	0x40985c24	4.7612476
73	0x411698db	9.412318
74	0x40f22a06	7.56763
75	0x40bdf76f	5.9364543
76	0x41145802	9.271486
77	0x40c3dc7b	6.120664
78	0x40b7be28	5.7419624
79	0x4129ba6b	10.608012
80	0x40bcf630	5.905052
81	0x40c25e8a	6.0740404
82	0x40d47963	6.6398177
83	0x40b8a1bb	5.7697425
84	0x4097c208	4.7424355
85	0x4169e5c9	14.6186
86	0x4104a8ff	8.291259
87	0x40b37f8f	5.609321
88	0x40c45cf7	6.1363482
89	0x4138bd13	11.546161
90	0x410a3f8e	8.640516
91	0x40e884db	7.2662177
92	0x410ffa8a	8.998667
93	0x4107409e	8.453276
94	0x41041cd8	8.257042
95	0x4124fce8	10.311745
96	0x40d3f997	6.6242175
97	0x40bbefca	5.873021
98	0x40f0d911	7.5264974
99	0x40ce493b	6.4464393
100	0x4095334e	4.662513
101	0x40bc8f23	5.8924727
102	0x40ba3500	5.8189697
103	0x40c6ab1e	6.2083883
104	0x4120ea37	10.057181
105	0x4162cdda	14.175257
106	0x41168bc6	9.409124
107	0x417484de	15.282438
108	0x40ded59a	6.9635744
109	0x41016052	8.086016
110	0x41143b78	9.264519
111	0x40d62e16	6.6931257
112	0x40cdbd19	6.429333
113	0x411bb0d7	9.730674
114	0x41079326	8.473425
115	0x40f2adff	7.5837398
116	0x4125078b	10.314342
117	0x40a8d135	5.275538
118	0x41333b83	11.202029
119	0x40f39e81	7.6130986
120	0x40a32026	5.0976744
121	0x40a54589	5.164738
122	0x406b61f7	3.6778543
123	0x40e5a536	7.1764174
124	0x40d60467	6.6880374
125	0x40d0d5c2	6.5260935
126	0x409f4cc1	4.9781194
127	0x4089a196	4.300975

sequential/lstm_1/Read_2/ReadVariableOp f4 [128]
0	0x3c0968c5	0.008386795
1	0xbabe7b54	-0.0014532604
2	0x3c39f1ef	0.011349185
3	0xbb4623f8	-0.0030233841
4	0xbba9e985	-0.0051853084
5	0x3b0abd41	0.0021169933
6	0xbbb9ee23	-0.00567414
7	0xbc802244	-0.01564134
8	0x3b73e36c	0.0037214411
9	0x3c3bc197	0.01145973
10	0xbbcd465a	-0.00626449
11	0xbb41786a	-0.0029521235
12	0xbbb7f782	-0.005614222
13	0xba988081	-0.0011634977
14	0x3bc340cc	0.005958652
15	0xbc63a278	-0.013893716
16	0xbb221dbd	-0.0024736964
17	0x3b54cb74	0.00324699
18	0xbbe9b937	-0.007132675
19	0xba65db56	-0.00087683403
20	0x3b41937c	0.002953737
21	0x3b543e9f	0.0032385958
22	0x3b5ad46f	0.003339078
23	0xbbe6ace9	-0.0070396555
24	0xbb44dae8	-0.0030037705
25	0xbc3a5972	-0.0113738645
26	0xbc8f6079	-0.017502056
27	0xbb112b21	-0.002215095
28	0xbca84e91	-0.020545276
29	0x3c3836dc	0.011243548
30	0x3c6746af	0.014115973
31	0xbc0b8687	-0.008515961
32	0x3f8029d9	1.0012771
33	0x3f81438b	1.0098737
34	0x3f7fa6b3	0.9986374
35	0x3f7e8b55	0.99431354
36	0x3f819660	1.0124016
37	0x3f81af55	1.0131632
38	0x3f7f4e98	0.997293
39	0x3f80259b	1.0011476
40	0x3f81ff7b	1.0156091
41	0x3f80ab91	1.0052358
42	0x3f817606	1.0114143
43	0x3f816ebc	1.0111918
44	0x3f80c461	1.005993
45	0x3f7f44df	0.99714464
46	0x3f819c6c	1.0125861
47	0x3f812988	1.0090799
48	0x3f800f0d	1.0004593
49	0x3f81c5ea	1.0138524
50	0x3f7ea6f6	0.9947351
51	0x3f7f6511	0.9976359
52	0x3f7f4647	0.9971661
53	0x3f7f12cf	0.99638075
54	0x3f80ec1a	1.0072052
55	0x3f80f5fe	1.0075071
56	0x3f802973	1.0012649
57	0x3f821aa3	1.0164379
58	0x3f80fe69	1.007764
59	0x3f7ef338	0.9958987
60	0x3f7e6ac7	0.9938168
61	0x3f801c87	1.0008706
62	0x3f8174df	1.0113791
63	0x3f7ea314	0.9946759
64	0x3a0f44cb	0.0005465268
65	0xbc232c0e	-0.009959234
66	0x3c0c9b8a	0.008582005
67	0xbbb119e6	-0.0054046987
68	0x3af2d726	0.0018527254
69	0x3c0403b3	0.008057523
70	0xbadab0c1	-0.0016684757
71	0x39e1298d	0.00042946302
72	0xbbbd3c03	-0.005774976
73	0xbbe10076	-0.00686651
74	0x3bbf75b3	0.0058428883
75	0x3bc2bba0	0.005942777
76	0xbada78e1	-0.0016668105
77	0x3ba12ecc	0.0049189087
78	0xbba0f88a	-0.0049124407
79	0x3bc209cb	0.0059215776
80	0x3bf331b8	0.0074216984
81	0xba1bacae	-0.0005938512
82	0xba3d56f8	-0.0007222737
83	0x3c11621d	0.00887349
84	0xbbb1d716	-0.0054272516
85	0xbc084ba3	-0.008318814
86	0x3b99650a	0.0046812342
87	0x3b1dee24	0.0024098242
88	0xbb4ef9b3	-0.0031581938
89	0x3add3e5f	0.001687955
90	0xbc1238ec	-0.008924704
91	0xbc0c1653	-0.008550244
92	0xbbef114d	-0.0072957636
93	0xbb86c85b	-0.0041132397
94	0xbc988bf3	-0.01862142
95	0x3ad42cef	0.0016187708
96	0xbb5c76ae	-0.0033640075
97	0x3cb0f67c	0.021601908
98	0xbb8ef053	-0.004362145
99	0x3b2bd543	0.0026219643
100	0x3c31bc1d	0.010848072
101	0x3c062d4d	0.0081895115
102	0x3c2dcdb9	0.01060813
103	0x3b8e5cc8	0.0043445565
104	0x3c267da9	0.010161796
105	0x3b7fdc1e	0.0039041112
106	0x3bbd3dee	0.005775205
107	0x3c01cbbc	0.007922109
108	0x3c5ddf32	0.013541983
109	0x3baa5c4b	0.0051989905
110	0x3a53d227	0.00080803264
111	0xbb02cc29	-0.0019958115
112	0x3c1b1ae1	0.009466858
113	0xb9c6ec10	-0.00037941383
114	0x3beb98bc	0.007189838
115	0x3bbc9252	0.0057547474
116	0x3cfae4d2	0.030626688
117	0x3c43bcc5	0.011946862
118	0x3c9ba8b1	0.019001337
119	0x3c4e77de	0.012601821
120	0x3c595b9b	0.013266469
121	0x3c8eff6a	0.017455775
122	0x3c906149	0.017624514
123	0xbcac8337	-0.021058662
124	0xbbfe68e2	-0.007763968
125	0x3c29d186	0.010364896
126	0x3c22cbfc	0.009936329
127	0xbbc26f8a	-0.0059337066

sequential/dense_1/BiasAdd/ReadVariableOp f4 [10]
0	0x3c605cd1	0.013694004
1	0x3d2623f8	0.040561646
2	0x3d95cfc6	0.0731502
3	0xbd911d22	-0.07085635
4	0x3bb5534f	0.005533613
5	0xbcac3753	-0.021022474
6	0xbb8156ed	-0.00394713
7	0xbd48c2d1	-0.049013916
8	0x3ce0af5e	0.027427372
9	0xbd205e15	-0.039152224

sequential/bidirectional/forward_lstm/Read_2/ReadVariableOp f4 [256]
0	0xbc360482	-0.011109473
1	0x3c613bee	0.0137471985
2	0x3c1cbc7f	0.009566425
3	0x3bf472e8	0.007459987
4	0xbb55490c	-0.003254476
5	0x3b99350a	0.004675512
6	0x3c1f0520	0.009705812
7	0x3c893469	0.016748624
8	0x3cb1b179	0.02169107
9	0x3bea800d	0.007156378
10	0xb9d995c4	-0.0004150105
11	0xbc116c1a	-0.008875871
12	0x3c513b9f	0.012770562
13	0x3bdbc977	0.006707366
14	0x3c49952a	0.01230363
15	0xbb3858a4	-0.0028129006
16	0x3bce1654	0.006289283
17	0xbb803406	-0.0039124517
18	0x3b87175a	0.004122657
19	0xbb710dda	-0.0036781938
20	0x3bbc17d9	0.0057401475
21	0x3c2297db	0.0099239005
22	0xbc1b0942	-0.009462656
23	0xbbf7041c	-0.0075383317
24	0x3c017f14	0.007903833
25	0xb9b10db9	-0.00033770295
26	0x3c48fc32	0.012267159
27	0x3b663e51	0.0035132358
28	0xbaab13fd	-0.0013052222
29	0xbc05d05b	-0.008167352
30	0x3cbfc996	0.023411553
31	0x3c175b70	0.009238109
32	0x3b6e451f	0.0036357117
33	0xbb8041de	-0.003914102
34	0xbbbea82f	-0.005818389
35	0xbad68999	-0.0016367912
36	0xbbca2c87	-0.006169859
37	0xbc41c4ab	-0.011826674
38	0xbc545c10	-0.012961403
39	0xbace329d	-0.0015731637
40	0xbb9817db	-0.0046415157
41	0x3bcb6821	0.0062074815
42	0x3c45f2d3	0.01208182
43	0x3b1e0d2c	0.0024116738
44	0x3c32f459	0.010922515
45	0x3c333467	0.010937787
46	0x3b8dc8e1	0.004326925
47	0xbb774e5b	-0.0037735912
48	0x3c71f8c5	0.014768784
49	0x3a859d66	0.0010194003
50	0x3b22ed90	0.0024860837
51	0xbc39a016	-0.011329671
52	0x3be4e5fb	0.0069854236
53	0xbc42fd30	-0.011901185
54	0xbc4e6056	-0.01259621
55	0x3c63410e	0.013870491
56	0xbc02e789	-0.007989773
57	0xbb4ec435	-0.0031550054
58	0x3c82c8cb	0.015964886
59	0x3ac303a4	0.0014878404
60	0xbbf349b9	-0.00742456
61	0xbc241223	-0.01001409
62	0xbc428315	-0.011872073
63	0xbadcc03a	-0.0016841956
64	0x3f7e9b2b	0.9945552
65	0x3f806776	1.0031574
66	0x3f82bd71	1.0214063
67	0x3f80492b	1.0022329
68	0x3f7e4bcc	0.99334407
69	0x3f800055	1.0000101
70	0x3f807fd3	1.0039009
71	0x3f81425c	1.0098376
72	0x3f802425	1.001103
73	0x3f81bfe6	1.0136688
74	0x3f7d6857	0.98987335
75	0x3f7e4e84	0.99338555
76	0x3f812473	1.0089248
77	0x3f821381	1.0162202
78	0x3f7e9a54	0.99454236
79	0x3f80db9e	1.0067022
80	0x3f80bcbe	1.00576
81	0x3f7e54d6	0.993482
82	0x3f7de583	0.9917833
83	0x3f80b50a	1.0055249
84	0x3f817f28	1.011693
85	0x3f80e252	1.0069067
86	0x3f806ac2	1.003258
87	0x3f7d89f6	0.99038637
88	0x3f8143a3	1.0098766
89	0x3f816ddf	1.0111655
90	0x3f8287e2	1.0197718
91	0x3f806207	1.0029916
92	0x3f7d7a72	0.9901496
93	0x3f811fe3	1.0087856
94	0x3f824491	1.0177175
95	0x3f81f3d5	1.0152537
96	0x3f821bd7	1.0164746
97	0x3f7f358a	0.9969107
98	0x3f805f6f	1.0029124
99	0x3f80083d	1.0002514
100	0x3f7ca563	0.9868986
101	0x3f7dc50f	0.9912881
102	0x3f7ff6d5	0.9998601
103	0x3f813468	1.0094118
104	0x3f805880	1.0027008
105	0x3f7fd530	0.99934673
106	0x3f812e4f	1.0092257
107	0x3f80ac17	1.0052518
108	0x3f817218	1.0112944
109	0x3f82095a	1.0159104
110	0x3f814fa4	1.0102429
111	0x3f804bd7	1.0023144
112	0x3f8176db	1.0114397
113	0x3f81f990	1.0154285
114	0x3f806974	1.0032182
115	0x3f7edb90	0.99553776
116	0x3f7f97b5	0.9984086
117	0x3f7ef414	0.99591184
118	0x3f806749	1.003152
119	0x3f7ffa64	0.9999144
120	0x3f7f6158	0.9975791
121	0x3f801908	1.0007639
122	0x3f817180	1.0112762
123	0x3f80a443	1.0050129
124	0x3f803696	1.0016658
125	0x3f801911	1.000765
126	0x3f827530	1.0192013
127	0x3f7f8d54	0.99825025
128	0x3c1ab786	0.009443169
129	0x3afcc561	0.0019284898
130	0xbc0d2fa7	-0.008617318
131	0x3c02bb56	0.007979235
132	0xbb89ce1d	-0.004205479
133	0xbb9e127f	-0.0048239822
134	0xbc8049b9	-0.015660154
135	0xbbd8fe38	-0.006622102
136	0xbb4c15b2	-0.003114086
137	0x3c0ce4dd	0.008599487
138	0xbc4fd5c7	-0.012685246
139	0x3c1b0cd3	0.009463507
140	0x3c158482	0.009125831
141	0x3be036a8	0.006842453
142	0xbada6b92	-0.0016664139
143	0xbbd8e70d	-0.0066193403
144	0xbc26d72a	-0.010183135
145	0xbc27d559	-0.010243737
146	0x3bdfa063	0.0068245395
147	0x3c0fec21	0.008784325
148	0xbc10951d	-0.008824614
149	0xba6320eb	-0.0008664268
150	0xbbad3b38	-0.0052866004
151	0xba99093b	-0.0011675725
152	0x3c06c793	0.008226293
153	0x3a4264ed	0.0007415552
154	0xbbd7b18f	-0.006582446
155	0x3a93be87	0.0011271992
156	0xbc28f425	-0.010312115
157	0xbb124d41	-0.002232388
158	0xbc00d7b4	-0.007863928
159	0x3ca5c795	0.02023677
160	0xbb4fccca	-0.0031707757
161	0x399b98cd	0.0002967775
162	0x3aae71ab	0.0013309022
163	0xbc4de0bc	-0.012565788
164	0x3b18b7d3	0.0023302927
165	0xbac64809	-0.0015127669
166	0x3c1ea079	0.009681814
167	0x3bf3efe2	0.0074443677
168	0xbbecac0a	-0.007222657
169	0x3aaf0ae3	0.0013354685
170	0x3bd894b6	0.0066095246
171	0xbbf9a35e	-0.007618352
172	0xbb2cf61b	-0.0026391807
173	0xbb7dd897	-0.0038733834
174	0xba7984c8	-0.0009518382
175	0x3c93bf22	0.018035475
176	0x3c3b241a	0.0114221815
177	0x3b6871ed	0.0035468296
178	0xbbf9235a	-0.007603091
179	0xbb66c043	-0.0035209812
180	0x3a9bdb26	0.0011890873
181	0xbb58f779	-0.003310649
182	0xbbd07fd1	-0.006362893
183	0x3a38d409	0.00070506387
184	0xbb67b128	-0.0035353396
185	0x3b45dae7	0.003019029
186	0x3a3aa19c	0.00071194186
187	0xbbdcc7c8	-0.006737683
188	0x3b0a181c	0.00210715
189	0x3be9dbab	0.007136782
190	0xbbe6d373	-0.0070442497
191	0x3b04108c	0.0020151464
192	0xbc373dac	-0.011184137
193	0x3c1d8547	0.009614295
194	0x3c4a8989	0.0123618925
195	0x38f392de	0.00011614499
196	0x3a64b4b1	0.0008724435
197	0x3c0ce9d8	0.008600675
198	0xbbb57bed	-0.0055384547
199	0x3c7194e8	0.014744975
200	0x3c0a0f6f	0.008426531
201	0x3c2ceeb0	0.010554954
202	0x3a918cb4	0.0011104555
203	0xbb84810f	-0.0040437053
204	0xb94a29b8	-0.00019279763
205	0x3bac2ba2	0.005254225
206	0x3a508d07	0.0007955585
207	0x3c396b12	0.011317031
208	0x3b400987	0.0029302554
209	0xbbd17b3e	-0.0063928654
210	0x3b7c3525	0.0038483825
211	0x3a4ac096	0.0007734386
212	0x3b7f3152	0.003893931
213	0x3bd3eb63	0.0064672693
214	0xbbb6f800	-0.005583763
215	0x3aabdf58	0.0013112826
216	0x38cea0eb	9.852819e-05
217	0xbbbf8d09	-0.00584567
218	0x3c33cfe9	0.010974863
219	0x3b8a834a	0.0042270767
220	0x3baf962b	0.0053584776
221	0xbba202e0	-0.0049441904
222	0x3d04883f	0.032356497
223	0xbb358f36	-0.0027703769
224	0x3bbb07fb	0.0057077385
225	0x3c2e03c7	0.010621018
226	0x3c88bc92	0.01669148
227	0xbbdae52e	-0.0066801524
228	0x3a8bf4c7	0.0010677808
229	0xbc23ef90	-0.010005847
230	0xbb88e9c5	-0.004178258
231	0xbb5e7e1a	-0.0033949674
232	0x3b7a4c2c	0.0038192375
233	0x38c8fba1	9.583613e-05
234	0x3c64499a	0.013933564
235	0x3bdc2865	0.0067186826
236	0x3b509c23	0.0031831346
237	0x3c1b337b	0.009472723
238	0x3c289f9a	0.010291958
239	0xbc04640e	-0.0080804955
240	0x3ca454c1	0.020059945
241	0x3be8539c	0.007090045
242	0x3c4f4ca6	0.012652552
243	0x3b3e1f05	0.0029010188
244	0x3a50dd1a	0.0007967517
245	0x3c27fde3	0.010253402
246	0x3904511a	0.00012618714
247	0xb77e9de0	-1.5176338e-05
248	0x3bd7d603	0.0065867915
249	0xbb8a5f71	-0.0042228033
250	0x3ba81197	0.00512905
251	0xbb5897b8	-0.0033049416
252	0x3bd8b5f4	0.0066134874
253	0x3bfca6a7	0.007710296
254	0x3b145a15	0.00226367
255	0xba753375	-0.0009353676

sequential/bidirectional/backward_lstm/Read_2/ReadVariableOp f4 [256]
0	0xbc9a5523	-0.018839424
1	0xbc2d7de4	-0.010589097
2	0xba8a2bc9	-0.0010541613
3	0x3b305361	0.0026905166
4	0xbb4822a8	-0.0030538235
5	0x3b61583d	0.003438487
6	0xba1b4030	-0.00059223454
7	0x3b80fe13	0.003936538
8	0x3c0d1596	0.0086111035
9	0xbbcf5274	-0.006326968
10	0xbc445d7d	-0.01198518
11	0xbc903663	-0.017604059
12	0xbb2d4516	-0.0026438884
13	0xbb194c25	-0.0023391333
14	0xbcd0db7b	-0.025495281
15	0x3b9f64c4	0.004864307
16	0x3a95cc2c	0.0011428646
17	0xbc22c03b	-0.009933527
18	0xbc0645f1	-0.008195386
19	0xbaa6171e	-0.0012671684
20	0xbc5b2730	-0.013376042
21	0x3ae56e25	0.0017504139
22	0xbc2ee65c	-0.010675039
23	0x3b6e7015	0.0036382724
24	0xbb6088c4	-0.0034261206
25	0xbb429c67	-0.0029695274
26	0xbbdf2c96	-0.006810735
27	0xbbee50d9	-0.0072728214
28	0x3b79aee0	0.0038098618
29	0x3bf393d9	0.0074333963
30	0x3c44a1ec	0.012001496
31	0xbbc762a0	-0.006084755
32	0x3ae1c0c3	0.0017223585
33	0xbc2ee346	-0.010674303
34	0xbba162e1	-0.0049251174
35	0x3c0a5d30	0.008445069
36	0x3b3aabb9	0.0028483702
37	0xbaa74a5a	-0.0012763247
38	0x3c235a1e	0.009970216
39	0x3a6f36d8	0.0009125299
40	0xbc862357	-0.016374273
41	0xbc194375	-0.009354462
42	0xbc651b3c	-0.013983544
43	0xbc16ee1d	-0.009212044
44	0x3b5d65fc	0.0033782711
45	0x3af4fa54	0.0018690326
46	0xbc997d40	-0.018736482
47	0x3bcc2347	0.0062297913
48	0x3c04d384	0.00810707
49	0x3b9c39f9	0.004767653
50	0xbc150feb	-0.009098033
51	0x3c1dee58	0.009639345
52	0x3aa5954c	0.0012632995
53	0x398adb5b	0.00026484844
54	0x3c096d34	0.008387852
55	0xbc772e35	-0.0150867
56	0xbba28311	-0.004959472
57	0x3b0cf5dd	0.002150885
58	0x39dc2757	0.0004199098
59	0xbbe9c6f4	-0.0071343128
60	0x3b9d0e6e	0.00479298
61	0x3b986b5c	0.00465147
62	0x3abc03fd	0.001434445
63	0x39038670	0.00012543215
64	0x3f7edb9a	0.99553835
65	0x3f7db2e9	0.9910112
66	0x3f804103	1.001984
67	0x3f7cc3d8	0.98736334
68	0x3f7eacbf	0.9948234
69	0x3f7e4f9f	0.9934024
70	0x3f809eb3	1.0048431
71	0x3f7e6d1a	0.99385226
72	0x3f80a169	1.0049258
73	0x3f7fd41f	0.99933046
74	0x3f7f53e6	0.99737394
75	0x3f7eb643	0.9949686
76	0x3f7e4c66	0.99335325
77	0x3f7edf58	0.99559546
78	0x3f7f11ba	0.99636424
79	0x3f7f9828	0.99841547
80	0x3f80912d	1.0044304
81	0x3f802548	1.0011377
82	0x3f8131c3	1.0093311
83	0x3f806a43	1.0032429
84	0x3f8011d0	1.0005436
85	0x3f810d7d	1.0082241
86	0x3f7d1da2	0.9887334
87	0x3f81203c	1.0087962
88	0x3f7d64b3	0.9898178
89	0x3f80266b	1.0011724
90	0x3f7f5b47	0.99748653
91	0x3f7f4276	0.99710786
92	0x3f8087df	1.0041465
93	0x3f8016c3	1.0006946
94	0x3f808a6e	1.0042245
95	0x3f8083f8	1.0040274
96	0x3f810072	1.0078261
97	0x3f7ec7d9	0.99523693
98	0x3f80be72	1.0058119
99	0x3f7fb3e9	0.99883896
100	0x3f804edd	1.0024067
101	0x3f7fd672	0.9993659
102	0x3f7f34cd	0.9968994
103	0x3f7e7a07	0.9940495
104	0x3f7d3f19	0.98924404
105	0x3f7d8745	0.9903453
106	0x3f7d71ae	0.99001586
107	0x3f801aee	1.0008218
108	0x3f80605e	1.0029409
109	0x3f7ef8ec	0.99598575
110	0x3f7f80d7	0.9980597
111	0x3f80aa6b	1.0052007
112	0x3f800559	1.0001632
113	0x3f8048ff	1.0022277
114	0x3f806036	1.0029361
115	0x3f7f9e14	0.99850583
116	0x3f7ee1a2	0.9956304
117	0x3f7f6c77	0.9977488
118	0x3f7f743b	0.9978673
119	0x3f7ea737	0.994739
120	0x3f806286	1.0030067
121	0x3f7d51a7	0.98952717
122	0x3f81b6b7	1.0133885
123	0x3f7f604c	0.9975631
124	0x3f7f97f5	0.99841243
125	0x3f7fa349	0.9985853
126	0x3f809201	1.0044557
127	0x3f802cc6	1.0013664
128	0xbb87b64a	-0.0041416036
129	0x3c28c959	0.010301911
130	0xbb133729	-0.0022463298
131	0x3c81c230	0.015839666
132	0x3b3b8818	0.0028615054
133	0xbc21cbee	-0.009875281
134	0xbb85b7f5	-0.0040807673
135	0xbaf9c7aa	-0.0019056697
136	0x3ba1d19f	0.004938319
137	0x3b606102	0.0034237509
138	0x3b15c93e	0.0022855545
139	0xbb65671c	-0.0035004085
140	0x3b2639c5	0.0025364023
141	0x3c051537	0.008122734
142	0xbb4550fb	-0.0030108083
143	0xbb1e2ba8	-0.0024134908
144	0xbbd10214	-0.0063784216
145	0xb8683a01	-5.536713e-05
146	0xbbbececb	-0.0058229915
147	0x3aff8a85	0.0019496238
148	0xbc48e261	-0.012261004
149	0x3c18beef	0.009322866
150	0xbb531df1	-0.0032213891
151	0x3b6e800b	0.0036392238
152	0xbc095f8c	-0.008384597
153	0x3bd19dc7	0.0063969824
154	0xbbd7ecf4	-0.0065895263
155	0xbc19909a	-0.009372855
156	0x3c0dec54	0.008662302
157	0x3b45def4	0.0030192705
158	0xbc92f132	-0.017937277
159	0xbc0e3f3c	-0.008682068
160	0x3aab4947	0.0013068103
161	0x3b125089	0.0022325835
162	0xbb02dc70	-0.0019967817
163	0x3ba738bd	0.0051031993
164	0x3c723a53	0.014784413
165	0x3afbb479	0.0019203565
166	0x3bca817a	0.0061799856
167	0x3b8cce31	0.004297041
168	0xbc18baf0	-0.009321913
169	0xbc2efa32	-0.010679768
170	0xbb389aa2	-0.002816834
171	0xbba5f4e4	-0.0050645936
172	0xbb9c598b	-0.0047714165
173	0x3b228ea6	0.0024804263
174	0xbb34b68c	-0.0027574627
175	0xbb1aafeb	-0.002360339
176	0x3c126406	0.00893498
177	0xbb961435	-0.0045800456
178	0x3b6bb967	0.0035968663
179	0x3c156aee	0.009119732
180	0x3b6ebcfc	0.0036428561
181	0x3aceff3b	0.0015792617
182	0x3bf96f8b	0.007612174
183	0x39cb41df	0.00038768255
184	0xbbd9a50d	-0.00664199
185	0xbc5ad3cf	-0.013356163
186	0x3957c5fd	0.00020577754
187	0xbb6e6e6c	-0.0036381735
188	0xbab48ac6	-0.0013774268
189	0xb96c31b5	-0.00022525231
190	0x3c086d8a	0.008326897
191	0x3a9fe210	0.0012198109
192	0xbc7f3cf9	-0.015578502
193	0xbc4f9259	-0.012669169
194	0xbb24c5cf	-0.0025142317
195	0xba051836	-0.0005077155
196	0xb9805daf	-0.00024483862
197	0xbb95f2da	-0.0045760693
198	0xbb321ee3	-0.0027179054
199	0xbc63cbed	-0.0139036
200	0x3bdc6198	0.0067255013
201	0x3b4a9fcb	0.0030917998
202	0xba93847f	-0.0011254697
203	0xbc6c08fa	-0.014406437
204	0x3b5731b6	0.0032836027
205	0x3b4719e8	0.0030380432
206	0xbc9df15d	-0.01928013
207	0x3a7972e6	0.00095157174
208	0xbb424b7f	-0.002964705
209	0xbbe14e0b	-0.0068757585
210	0xbc117862	-0.008878799
211	0x3ae65f16	0.0017575945
212	0xba2461e0	-0.0006270688
213	0xbb352a08	-0.002764346
214	0xbc614f24	-0.013751779
215	0x3b411570	0.002946224
216	0x391a9cb8	0.00014744967
217	0xbbf6345c	-0.007513566
218	0xbbd89239	-0.006609228
219	0xbc7a9184	-0.015293483
220	0xbc349a72	-0.011023151
221	0xbbafad02	-0.0053612003
222	0xbbaa6218	-0.005199682
223	0xbc47d9f7	-0.012197963
224	0xbb5198b2	-0.0031981883
225	0x3c55dba0	0.013052851
226	0xbb36a3a7	-0.002786854
227	0x3c3651a7	0.011127866
228	0x3be31583	0.0069300546
229	0x3b752a1c	0.0037409132
230	0x3bad8f2a	0.0052966075
231	0xbb54c1d8	-0.0032464173
232	0xbb147cd6	-0.0022657416
233	0xbc3508b6	-0.01104944
234	0xbc70bde5	-0.014693712
235	0xbbc7beea	-0.006095757
236	0x3afe9e9b	0.001942593
237	0x3b67a168	0.0035344008
238	0xbbc2cdfd	-0.005944966
239	0x3c12e145	0.008964841
240	0x3c3efae2	0.011656495
241	0x3c148cd5	0.00906678
242	0xbc33beb6	-0.010970762
243	0x3b5dda17	0.0033851916
244	0xbb639fab	-0.003473262
245	0xbc16fc36	-0.009215405
246	0x3a623794	0.00086294976
247	0xbc1e5071	-0.009662733
248	0xbad0aa1c	-0.0015919837
249	0xbbca85b2	-0.0061804885
250	0x3bd266cb	0.0064209453
251	0xbc2a751c	-0.010403898
252	0xb95a4674	-0.00020816346
253	0x3ad27d7b	0.0016059125
254	0xbab73085	-0.0013976252
255	0x392d34e8	0.00016518275

MatMul_11 f4 [256, 64]
0	0xbdc8f3bc	-0.09812114
1	0x3cde52cd	0.027139092
2	0x3cd256ad	0.025676096
3	0x3d3dda5e	0.04635083
4	0xbc806d5f	-0.015677152
5	0xbdcf7029	-0.10128815
6	0x3dd87851	0.105698235
7	0x394acafd	0.0001933984
8	0xbb755547	-0.0037434862
9	0x3c4c2d26	0.012461936
10	0xbd1fbaad	-0.038996387
11	0xbd55b6b9	-0.05217621
12	0xbd2060fc	-0.03915499
13	0xbcee5092	-0.029091153
14	0xbd298819	-0.04138956
15	0xbddbc3db	-0.10730716
16	0xbc838fe2	-0.01605982
17	0xbdd85f31	-0.10565031
18	0xbd72b03d	-0.059250105
19	0xbd4a59ed	-0.049402166
20	0x3dfe1a4b	0.12407359
21	0xbe0a3f75	-0.1350077
22	0x3de1f2aa	0.110326126
23	0xbc565b8c	-0.01308335
24	0xbb558fe6	-0.003258699
25	0x3e1078a5	0.14108522
26	0x3d9f05ac	0.07764754
27	0xbd925bd5	-0.07146422
28	0x3d1ca1e5	0.038240332
29	0x3be83290	0.0070861056
30	0x3d9d24b8	0.07673019
31	0xbddd39fd	-0.10802076
32	0xbd03f9c2	-0.03222061
33	0xbd6dfd8c	-0.05810313
34	0xbc5615c0	-0.013066709
35	0xbda311b9	-0.07962365
36	0xbd4bba34	-0.049738124
37	0x3ce16fb3	0.027519083
38	0x3d2d9993	0.042382788
39	0xbcc4676e	-0.0239751
40	0xbdcb8269	-0.09936983
41	0xbcb60c5e	-0.022222694
42	0x3d7425b6	0.059606276
43	0x3dd7881c	0.10524008
44	0xbd2279b9	-0.039666865
45	0x3d85cfe2	0.06533791
46	0xbc2c7632	-0.010526227
47	0xbcd9783d	-0.026546592
48	0x3d5ca9b1	0.053872768
49	0x3c3308f6	0.010927429
50	0x3cbb35f6	0.022852879
51	0x3d8ff041	0.07028247
52	0xbd039839	-0.032127593
53	0x3b8de874	0.004330689
54	0xbb75e56f	-0.0037520786
55	0xbc450f4a	-0.012027571
56	0x3b37422f	0.0027963032
57	0xbc838dfb	-0.016058913
58	0x3d6c295d	0.057656635
59	0xbd4681af	-0.04846352
60	0xbc9ac883	-0.01889444
61	0xbd728ebd	-0.059218157
62	0xbb51ed10	-0.003203217
63	0x3dba03e3	0.090827726
64	0xbdcb7989	-0.0993529
65	0xbcd5bdaf	-0.026091425
66	0x3d997b2a	0.07494195
67	0x3d5ff355	0.05467542
68	0xbe1977aa	-0.14987054
69	0xbc716b81	-0.014735104
70	0x3c968e73	0.018378472
71	0x3dbaf573	0.09128847
72	0x3d8d80c1	0.069093235
73	0x3da2083b	0.07911726
74	0xbd4c843a	-0.04993079
75	0xbd517884	-0.051140323
76	0x3c3f143e	0.011662541
77	0x39a618d4	0.00031680486
78	0x3d6eebfe	0.05833053
79	0xbb116c1b	-0.002218968
80	0xbc5079a9	-0.012724319
81	0xbcaff286	-0.021477949
82	0x3ccd7c48	0.025083676
83	0x3e052db8	0.13005722
84	0xbd33051a	-0.043706037
85	0xbddceafb	-0.107870065
86	0xbd4c493a	-0.04987452
87	0x3c913b35	0.017728427
88	0x3b75b638	0.0037492644
89	0x3cf23c3a	0.029569734
90	0x3d1f0578	0.038823575
91	0x3d189a0f	0.037256297
92	0xbd87acf4	-0.06624785
93	0x3ca71e21	0.020400109
94	0x3d67c2ad	0.05658214
95	0xbc1eee38	-0.00970035
96	0x3cc920e1	0.02455181
97	0xbc1c8175	-0.009552349
98	0x3d287b64	0.0411333
99	0xbdbaddb4	-0.09124318
100	0x3d9fd3fb	0.07804104
101	0xbc4a443d	-0.012345371
102	0x3deaf47d	0.11472414
103	0x3ce36649	0.027758734
104	0x3d69c598	0.057073206
105	0x3cae25d8	0.02125828
106	0xbd646164	-0.05575694
107	0xbcc462d2	-0.023972902
108	0xbd319120	-0.043351293
109	0xbd23ad60	-0.039960265
110	0x3ce147dc	0.027500086
111	0x3d1ecacc	0.03876762
112	0xbd65cd99	-0.056104276
113	0x3c1eccf6	0.009692421
114	0x3cc2b350	0.023767143
115	0xbe08ca64	-0.13358456
116	0x3d9bf504	0.076150924
117	0xbd5bfdd7	-0.053708877
118	0xbd3e76f5	-0.046500165
119	0xbd31dda4	-0.043424264
120	0xbe16c38a	-0.1472303
121	0x3d20ba85	0.03924038
122	0x3dae24cb	0.085031115
123	0x3d2ee630	0.042699993
124	0xbccae4fb	-0.02476739
125	0xbdda4f6b	-0.10659679
126	0xbd313655	-0.043264706
127	0x3d50ac47	0.050945546
128	0xbd835208	-0.064121306
129	0x3d4a1913	0.04934032
130	0xbbc7ea40	-0.006100923
131	0x3d38596d	0.045007158
132	0xbe05979a	-0.13046113
133	0x3d0d1ba0	0.034450173
134	0x3d95bb26	0.07311086
135	0xbc98c26c	-0.018647395
136	0x3d315bae	0.043300323
137	0xbd49e538	-0.049290866
138	0xbd6047f6	-0.054756127
139	0xbd7106e1	-0.05884445
140	0x3db5c1a2	0.08874823
141	0x3ca39268	0.019967273
142	0xbc5cf595	-0.013486286
143	0xbd9dcdc2	-0.07705261
144	0x3db9233c	0.090399235
145	0xbd6de3f7	-0.058078732
146	0x3ce2bd28	0.027678087
147	0x3ce0f6c0	0.02746141
148	0xbd23bce1	-0.03997505
149	0xbe1b4425	-0.15162714
150	0xbc5cf06d	-0.013485056
151	0x3db6991b	0.08915921
152	0x3d8f2203	0.06988909
153	0xbaa57cc4	-0.0012625684
154	0xbb9dcb1b	-0.004815472
155	0x3dbbf98c	0.09178457
156	0x3cf51fc0	0.029922366
157	0xbd7b1a68	-0.06130448
158	0x3d699989	0.05703119
159	0x3bc1ab26	0.005910295
160	0x3dd9e2bc	0.10638949
161	0xbd3780a5	-0.04480042
162	0xbd836346	-0.06415419
163	0x3dbc298d	0.09187613
164	0x3ae80c13	0.0017703794
165	0x3cadbd56	0.021208446
166	0x3c1587c4	0.009126607
167	0x3daf21e1	0.08551384
168	0x3d3e1ef1	0.046416227
169	0xbcd3193f	-0.025768874
170	0x3d8a81bd	0.06763027
171	0xbc3b991e	-0.01145008
172	0x3d2e3262	0.042528518
173	0x3d03820f	0.032106455
174	0x3d370813	0.044685435
175	0x3b416942	0.0029512201
176	0x3deff5c7	0.117168
177	0x3d28115f	0.04103219
178	0x3d2d7b35	0.042353828
179	0x3d9660cc	0.07342681
180	0xbd6cd9a5	-0.05782475
181	0xbd2d96a7	-0.04238
182	0x3d18d217	0.037309732
183	0x3d7b9a05	0.06142618
184	0xbafe2fc2	-0.0019392895
185	0xbc8d3a6a	-0.017239768
186	0xbc8e8909	-0.017399328
187	0x3db67593	0.08909144
188	0x3d1bb735	0.038016517
189	0x3d6d6c2e	0.057964496
190	0xbd447f7c	-0.04797314
191	0xbd540d1c	-0.051770315
192	0x3c8a47e9	0.016879993
193	0x3d88e2a4	0.06683853
194	0x3e2bd69c	0.16781086
195	0xbe27d6b1	-0.16390492
196	0x3e29461f	0.16530655
197	0xbd22fea5	-0.03979363
198	0xbd93e958	-0.07222241
199	0xbb5a45b5	-0.0033305709
200	0x3dd022f2	0.10162915
201	0x3d0302d8	0.031985134
202	0x3c90082e	0.017582025
203	0xbdaf5069	-0.08560259
204	0x3c414f5f	0.011798709
205	0x3ceb0d95	0.028693
206	0x3d43e217	0.047823038
207	0xbdb57d76	-0.088618204
208	0xbc48889d	-0.012239602
209	0xbd9a1005	-0.07522587
210	0xbd35f91c	-0.044427022
211	0xbd215b48	-0.039393693
212	0x3d53d7ba	0.051719405
213	0xbcee0a4c	-0.029057644
214	0x3d911554	0.07084146
215	0xbd4c3cd1	-0.049862687
216	0xbd7bc4df	-0.061467048
217	0xbd1fed70	-0.039044797
218	0x39da2f47	0.00041615425
219	0xbd804791	-0.0626365
220	0xbdbc4056	-0.091919586
221	0xbd666dfa	-0.056257226
222	0x3d4b4519	0.049626444
223	0xbd4eed4f	-0.050519284
224	0x3a8d6d1e	0.0010789966
225	0x3d9b1da3	0.07574012
226	0x3c5e581b	0.013570811
227	0x3d817301	0.063207634
228	0x3cd1ebc2	0.025625113
229	0x3d92b283	0.07162955
230	0x3d3ad15f	0.045609828
231	0xbdd804ad	-0.10547767
232	0xbcfb1739	-0.030650722
233	0xbd56f0b2	-0.05247564
234	0xba882163	-0.0010385927
235	0xbd2c7c9d	-0.042111028
236	0xbc365ee6	-0.011131024
237	0xbc200ed4	-0.00976916
238	0x3df7cf21	0.121000536
239	0x3dc4e754	0.09614435
240	0xbc82bc6f	-0.015958993
241	0xbdaef723	-0.08543231
242	0xbd0361ef	-0.03207582
243	0xbd72d45f	-0.059284564
244	0xbe01abd7	-0.12663208
245	0xbe39425b	-0.18091719
246	0x3d5f766c	0.054556295
247	0x3d86a626	0.06574659
248	0xbcb19db0	-0.021681637
249	0xbc88f733	-0.016719436
250	0xbd649ea1	-0.055815343
251	0x3d2deb6d	0.042460848
252	0xbb4b12bc	-0.0030986508
253	0xbdbe0776	-0.09278767
254	0x3d75cf1b	0.060011964
255	0xbda22914	-0.07917991

MatMul f4 [256, 162]
0	0xbdf0e964	-0.11763266
1	0xbcd858ac	-0.02640947
2	0xbd1a7038	-0.037704676
3	0xbe053285	-0.13007553
4	0xbd7a4096	-0.06109675
5	0xbdd4b251	-0.10385574
6	0xbb912669	-0.0044296277
7	0x3d67abdc	0.056560382
8	0xbddfc7d1	-0.10926784
9	0xbdbab8b0	-0.091172576
10	0x3c82f80b	0.015987417
11	0xbb9a428f	-0.0047076414
12	0x3dae5f95	0.085143246
13	0x3d936b57	0.07198208
14	0x3dbf2d93	0.093348645
15	0x3d81ecf0	0.0634402
16	0x3de72f22	0.11288287
17	0xbc8a5a1d	-0.016888672
18	0x3d26835e	0.040652625
19	0xbd4411d8	-0.04786858
20	0xbe013f33	-0.12621765
21	0x3ded02b6	0.11572783
22	0x3d085f3e	0.033293955
23	0xbc6609e8	-0.014040448
24	0xbd4214df	-0.047383185
25	0x3d838941	0.064226635
26	0x3d1f38c2	0.038872488
27	0x3d9af991	0.07567132
28	0x3d9ace4f	0.075588815
29	0x3d6556a9	0.05599085
30	0x3da884f1	0.082284816
31	0xbdda9747	-0.10673385
32	0x3d866c41	0.065636165
33	0x3dc54989	0.09633166
34	0x3ddebf3b	0.10876318
35	0x3d9a2f13	0.0752851
36	0xbd04eca2	-0.032452233
37	0xbcc65550	-0.024210602
38	0x3ddad14f	0.10684454
39	0x3dba66dd	0.09101651
40	0xbdaf0109	-0.08545119
41	0x3d2ee86e	0.04270213
42	0xbc1c38aa	-0.009534994
43	0x3cb436d1	0.021998795
44	0xbd5c0888	-0.053719074
45	0x3cbbbba5	0.022916624
46	0xbd6dd726	-0.05806651
47	0x3d87c652	0.066296235
48	0x3caf827d	0.021424526
49	0x3d39e2c4	0.045382276
50	0x3df00cad	0.11721168
51	0x3c580c91	0.01318659
52	0xbd179054	-0.037002876
53	0x3dbb2aa6	0.09138994
54	0x3dad7a51	0.08470596
55	0x3dbc152c	0.09183726
56	0x3de81b20	0.11333299
57	0x3d3312b8	0.043719023
58	0x3d7723ff	0.060337063
59	0xbd7e6319	-0.062106226
60	0xbdd381fe	-0.103275284
61	0xbd11cf9a	-0.035598375
62	0xbd404159	-0.04693732
63	0xbc736b82	-0.014857175
64	0x3dba4b1e	0.09096359
65	0xbd91eed7	-0.07125633
66	0xbc5f1013	-0.013614672
67	0xbca40077	-0.020019753
68	0x3d001b2a	0.031275906
69	0xbaedd3f3	-0.0018144831
70	0xbd8ee42c	-0.06977114
71	0xbbb6f2da	-0.0055831494
72	0x3df827f5	0.12116996
73	0x3dfb905e	0.12283395
74	0x3d3c13f7	0.045917477
75	0xbcf2f9a2	-0.02966005
76	0x3cde353b	0.027124992
77	0xbda617b9	-0.081099935
78	0xbdc8f871	-0.098130114
79	0xbd37066b	-0.044683855
80	0xbdb54dc5	-0.08852724
81	0x3c46497e	0.012102483
82	0xbd001a52	-0.0312751
83	0x3c9133f1	0.017724963
84	0x3dbc5f5c	0.09197876
85	0xbad481ab	-0.001621296
86	0x3bd14e94	0.006387541
87	0x3dd2a47d	0.1028528
88	0xbdf8bd4f	-0.12145483
89	0xbde3449d	-0.11097071
90	0xbdcda33f	-0.10040902
91	0x3daedf54	0.0853869
92	0xbdb533b1	-0.0884775
93	0x3d4a30ae	0.04936283
94	0x3d32e814	0.04367836
95	0xbdbab8fc	-0.09117314
96	0xbd1e3472	-0.038624234
97	0xbdb0d198	-0.08633727
98	0xb9a1e64b	-0.00030879895
99	0xbd9cd02a	-0.07656892
100	0xbdac362b	-0.08408769
101	0xbdc12a58	-0.094319046
102	0x3dd5af70	0.10433853
103	0xbd305c40	-0.043056726
104	0x3d4a9603	0.04945947
105	0x3d43425c	0.047670707
106	0xbcaaa612	-0.020831142
107	0x3db06c45	0.08614401
108	0xbdaf514f	-0.0856043
109	0xbd65aa2d	-0.056070495
110	0x3d0cec18	0.034404844
111	0x3b372b9b	0.0027949575
112	0x3d78ec58	0.06077227
113	0xbdec20cb	-0.11529692
114	0x3dc8afb4	0.09799138
115	0xbd69e11c	-0.057099447
116	0x3d851413	0.064979695
117	0xbc56a71a	-0.013101364
118	0x3de419f4	0.11137763
119	0xbd789f01	-0.060698513
120	0x3df23220	0.11825967
121	0xbc85033c	-0.016236894
122	0xbe0290b2	-0.1275051
123	0xbdda4419	-0.1065752
124	0xbda1041b	-0.07862111
125	0x3da522c6	0.08063273
126	0x3d9ecc9e	0.077538714
127	0x3c9679b8	0.018368587
128	0x3d6eb921	0.05828202
129	0xbd94590c	-0.07243547
130	0xbcd1256f	-0.025530545
131	0x3dca0ca9	0.09865696
132	0xbdec3bf6	-0.11534874
133	0xbdd5eebb	-0.10445925
134	0xbdcc0bc4	-0.099631816
135	0x3da0f910	0.07860005
136	0x3cca5993	0.024700915
137	0xbd197250	-0.037462533
138	0xbc7f2a62	-0.01557407
139	0xbd5d21a1	-0.05398715
140	0xbd401366	-0.0468935
141	0xbd31ba8f	-0.043390807
142	0x3dcb69ea	0.09932311
143	0xbd30d8a7	-0.043175366
144	0xbd11d8f8	-0.03560731
145	0xbbd90556	-0.0066229505
146	0xbdc6687a	-0.09687896
147	0x3dc6f2a5	0.097142495
148	0xbd985f8c	-0.07440099
149	0x3d563a3a	0.052301623
150	0xbced2153	-0.028946554
151	0x3cf42c46	0.029806267
152	0xbd670672	-0.05640263
153	0x3d2840eb	0.041077536
154	0xbdb70966	-0.089373395
155	0x3dd06d32	0.10177077
156	0xbd0d51e4	-0.034501925
157	0xbd04fe01	-0.0324688
158	0xbd2f044c	-0.042728707
159	0x3da537d6	0.080672905
160	0x3dbdb618	0.09263247
161	0x3c8cad5d	0.01717251
162	0xbdc14eb2	-0.09438838
163	0x3d83e2af	0.06439721
164	0xbd8fc692	-0.07020296
165	0xbdb8fece	-0.09032975
166	0x3b8f8a71	0.004380517
167	0xbc508140	-0.012726128
168	0x3ddf27be	0.10896252
169	0x3dc6477c	0.09681603
170	0x3d850773	0.064955615
171	0x3dcb87ed	0.09938035
172	0xbd0cf519	-0.03441343
173	0x3d5b8b81	0.05359984
174	0x3d042b52	0.032267876
175	0x3d3a8f7f	0.045547005
176	0x3ca205ee	0.019778218
177	0x3bdeecea	0.0068031447
178	0xbcb3ce04	-0.021948822
179	0xbd960637	-0.07325404
180	0x3d43283d	0.047645796
181	0xbdb699db	-0.08916064
182	0xbd5dfa64	-0.05419387
183	0x3de40ac2	0.111348644
184	0x3d223a23	0.039606225
185	0x3cec5e60	0.028853595
186	0xbc00de52	-0.007865505
187	0xbd8f6943	-0.07002499
188	0x3d9de5a4	0.07709816
189	0x3da208a8	0.07911807
190	0xbd68d9d8	-0.056848377
191	0x3dab9156	0.0837733
192	0xbdb2b163	-0.0872524
193	0xbdbc1731	-0.09184111
194	0xbd8b123f	-0.067905895
195	0x3c377e14	0.011199493
196	0xbd9caee4	-0.07650545
197	0x3d281637	0.04103681
198	0xbdebe03d	-0.115173794
199	0x3ba89fb6	0.005145992
200	0x3de29765	0.110640325
201	0xbd05f1f0	-0.032701433
202	0xbd7329fd	-0.059366215
203	0x3d3128c9	0.043251786
204	0xbd960963	-0.07326009
205	0xbac7c50b	-0.0015241218
206	0xbc0d347c	-0.00861847
207	0xbcb17804	-0.021663673
208	0xbd23e355	-0.040011723
209	0x3dfd51d3	0.12369122
210	0xbdec752e	-0.11545788
211	0xbd6cf309	-0.057848964
212	0x3df00639	0.11719937
213	0x3dedcb37	0.11611026
214	0x3de284fc	0.11060521
215	0xbd497b5e	-0.049189918
216	0xbd89f91e	-0.067369685
217	0x3d82f9fe	0.063953385
218	0x3ddf1815	0.10893265
219	0x3df7c3b9	0.12097878
220	0x3b25d004	0.002530099
221	0x3cec4424	0.028841086
222	0xbdb8bef2	-0.09020795
223	0x3d7322eb	0.059359472
224	0xbd9f1de1	-0.07769371
225	0x3d637c29	0.05553833
226	0x3d0f70c2	0.035019644
227	0xbd377bef	-0.044795927
228	0xbd8b51e6	-0.0680273
229	0xbdb5e47d	-0.08881471
230	0xbc20cf77	-0.0098150885
231	0xbd633962	-0.055474646
232	0xbdbaac4c	-0.09114894
233	0x3d2ff556	0.04295858
234	0xbdb57213	-0.088596486
235	0x3cbe5a3f	0.023236392
236	0x3de3c509	0.11121566
237	0x3d34c9be	0.04413771
238	0x3dea8833	0.11451759
239	0x3cd3f518	0.025873706
240	0xbd9ec25d	-0.077519156
241	0xbc43f9b7	-0.011961392
242	0xbd23decf	-0.04000741
243	0x3ceb85e9	0.028750377
244	0xbc26fda1	-0.010192306
245	0x3ddf01ee	0.1088904
246	0xbdeb4898	-0.114884555
247	0xbda7be19	-0.08190555
248	0x3cd4f78f	0.025996951
249	0x3d9c767c	0.076397866
250	0xbdf4abea	-0.119468525
251	0xbadfb2fe	-0.0017066894
252	0xbdcc822a	-0.09985764
253	0xbd0211c9	-0.031755242
254	0x3e084798	0.13308561
255	0xbd84653c	-0.064646214
