v1/models/mlp_model.tflite (tflite, 296284 bytes, 6 tensors)

sequential/dense_1/BiasAdd/ReadVariableOp f4 [64]
-0.006685361 0.0 -0.010409719 0.0 0.0 0.0075779045 0.008425096 -0.007891626
-0.00791468 -0.010189885 -0.011955366 -0.0051702154 -0.0060050995 0.0 -0.00783684 -0.0068805595
0.001727538 0.0011673941 -0.004661752 0.011841294 -0.014678447 0.0038592133 0.0007939007 0.0041036797
0.023815216 0.010109045 0.0045782896 -0.005409966 -0.0004461766 -0.0046730433 0.005201161 0.0
-0.008436953 -0.0060942173 -0.0037204186 -0.005111622 -0.005470189 -0.011899378 -0.009288599 0.010821588
0.0010770287 0.0006924443 0.0017562929 -0.006264802 -0.009765746 0.0017659749 0.008779182 -0.0016169066
0.0003955403 0.012917694 -0.0025649215 -0.008394032 0.0032123297 0.0034040224 -0.0034764297 0.0
-0.0017905559 0.013677111 0.0068542003 -0.0074608056 0.0065561077 0.008868658 0.0 -0.009110989
00000000: df10 dbbb 0000 0000 878d 2abc 0000 0000
00000010: 0000 0000 1250 f83b 6a09 0a3c e14b 01bc
00000020: 93ac 01bc 7af3 26bc 70e0 43bc e96a a9bb
00000030: 6dc6 c4bb 0000 0000 1766 00bc 5176 e1bb
00000040: 8e6e e23a 3f03 993a 9cc1 98bb fd01 423c
00000050: de7d 70bc dbea 7c3b c61d 503a 2978 863b
00000060: 2118 c33c 68a0 253c 7a05 963b 1646 b1bb
00000070: cfec e9b9 5420 99bb 806e aa3b 0000 0000
00000080: 253b 0abc 00b2 c7bb 44d2 73bb 657f a7bb
00000090: 453f b3bb 9cf5 42bc 352f 18bc 084d 313c
000000a0: 162b 8d3a 2685 353a 6933 e63a f848 cdbb
000000b0: 8200 20bc 4978 e73a 8fd6 0f3c 62ee d3ba
000000c0: 8560 cf39 bca4 533c 3e18 28bb 1f87 09bc
000000d0: f385 523b 0516 5f3b d0d4 63bb 0000 0000
000000e0: 16b1 eaba f615 603c 3399 e03b c679 f4bb
000000f0: 9ed4 d63b d94d 113c 0000 0000 4246 15bc

sequential/dense_2/BiasAdd/ReadVariableOp f4 [10]
0.014192902 -0.0014251503 -0.006592462 0.0073421663 -0.0035486347 0.017452817 0.0041268454 0.009157356
-0.02729869 -0.03572529
00000000: 5889 683c 1ccc baba 9405 d8bb 8e96 f03b
00000010: 3690 68bb 36f9 8e3c 7d3a 873b bc08 163c
00000020: 81a1 dfbc af54 12bd

sequential/dense/BiasAdd/ReadVariableOp f4 [128]
0.0 0.0018538954 -0.0028992395 0.00031028962 0.0 0.006885843 -0.005955029 -0.004243619
-0.0025404515 -0.0059968913 -0.001848501 0.0 0.0 0.0 -0.0018426586 0.006154632
-0.011081802 -0.0062209493 0.0 0.0 0.0 0.009430456 -0.0015358648 -0.0020030867
0.0 -0.0035149949 -0.0015077759 0.0 -0.006391019 -0.009054886 0.00397514 -0.0043702223
0.0 -0.0060030245 -0.002726484 -0.006235239 0.0010911503 -0.00090138963 -0.0059977868 0.0025074813
-0.0029259352 -0.006004527 0.006055232 0.0 -0.0076567265 0.0 -0.0061663925 0.0
0.010512081 -0.0025764047 0.00374699 0.0002374089 -0.005999494 0.010966064 3.5183039e-06 -0.008297625
-0.00039378353 -0.0051109632 0.003923327 0.0 -0.0025552737 -0.005999688 -0.005566197 -0.008032414
-0.0025514564 -0.0059971525 0.011278605 0.0036389623 -0.0065984363 0.009990537 0.0 0.0
0.0 0.0 0.0034770453 0.0030696956 0.0 0.0029719875 -0.00071495445 0.0
0.0067728944 0.0035974458 0.0016539588 -0.00952324 -0.0043648686 -0.0031661824 -0.0013344032 0.0
-0.013239109 0.0 -0.006314729 0.0010246504 -0.0027976593 -0.011529451 -0.0074877036 0.0
0.0 0.0055000554 0.006245919 0.0 -0.0031799837 -0.0059683057 -0.005220331 0.0045237048
0.0 -0.0073619196 -0.0040415577 0.0 0.0073043252 0.0 -0.0049156956 0.020635339
-0.002952477 -0.004924616 0.0 -0.0028070877 -0.0042673447 -0.0008705877 -0.0055534244 0.0
0.0 0.0026807387 0.009689536 -0.008912131 0.005210316 -0.0010978612 0.0 0.0
00000000: 0000 0000 68fe f23a 2b01 3ebb 5eae a239
00000010: 0000 0000 a3a2 e13b 6722 c3bb 0e0e 8bbb
00000020: b47d 26bb 9281 c4bb 6749 f2ba 0000 0000
00000030: 0000 0000 0000 0000 5d85 f1ba ccac c93b
00000040: 7290 35bc 1bd9 cbbb 0000 0000 0000 0000
00000050: 0000 0000 3382 1a3c 124f c9ba 3846 03bb
00000060: 0000 0000 d45b 66bb 90a0 c5ba 0000 0000
00000070: c16b d1bb f25a 14bc e441 823b 1534 8fbb
00000080: 0000 0000 05b5 c4bb d0ae 32bb fa50 ccbb
00000090: ee04 8f3a 3c4b 6cba 1589 c4bb 8e54 243b
000000a0: 0cc1 3fbb a0c1 c4bb f86a c63b 0000 0000
000000b0: 47e5 fabb 0000 0000 730f cabb 0000 0000
000000c0: dd3a 2c3c e6d8 28bb 1090 753b f7f0 7839
000000d0: 6797 c4bb 02ab 333c 001c 6c36 c3f2 07bc
000000e0: bb74 ceb9 de79 a7bb 418f 803b 0000 0000
000000f0: 6176 27bb 0899 c4bb a564 b6bb 639a 03bc
00000100: 5636 27bb c383 c4bb e6c9 383c a87b 6e3b
00000110: b237 d8bb 59af 233c 0000 0000 0000 0000
00000120: 0000 0000 0000 0000 24df 633b f22c 493b
00000130: 0000 0000 adc5 423b c86b 3bba 0000 0000
00000140: 28ef dd3b 20c3 6b3b a6c9 d83a 5d07 1cbc
00000150: 2c07 8fbb ba7f 4fbb 24e7 aeba 0000 0000
00000160: d9e8 58bc 0000 0000 c9eb cebb 904d 863a
00000170: ef58 37bb 06e6 3cbc 695b f5bb 0000 0000
00000180: 0000 0000 cf39 b43b 91aa cc3b 0000 0000
00000190: 4667 50bb c791 c3bb 4f0f abbb 963b 943b
000001a0: 0000 0000 423c f1bb 0b6f 84bb 0000 0000
000001b0: 1f59 ef3b 0000 0000 d813 a1bb 710b a93c
000001c0: 587e 41bb ac5e a1bb 0000 0000 1ef7 37bb
000001d0: 15d5 8bbb 2738 64ba 80f9 b5bb 0000 0000
000001e0: 0000 0000 55af 2f3b dcc0 1e3c 3004 12bc
000001f0: 4cbb aa3b 1ce6 8fba 0000 0000 0000 0000

sequential/dense/MatMul f4 [128, 504]
-0.030535884 0.037449606 -0.013903573 0.09308451 -0.017812416 0.030964829 -0.03377825 -0.075689234
0.04193034 -0.04630351 0.009498894 0.07834344 -0.056361843 0.039592452 -0.026399612 -0.07883257
0.080389954 -0.049238674 0.022745423 -0.09399455 -0.07714548 -0.051001564 -0.077894054 -0.012447141
-0.09379447 0.06922523 0.03268496 0.011451319 0.06565615 0.009268194 0.015798062 -0.019247591
0.009879224 0.0032500029 0.08077904 -0.019939117 -0.05099773 0.06020487 0.0931348 -0.04762005
0.03576968 0.06688478 0.05434788 -0.024852447 0.021278165 0.09453715 0.03792522 -0.06205611
-0.04202837 0.0033295676 0.058529265 -0.06276496 0.07033899 -0.02755586 -0.058117624 0.07744009
-0.0287214 -0.02914071 0.03988587 0.09363855 0.057581045 0.067073666 -0.01839041 0.0051795244
-0.0061430037 0.04604905 0.060737602 -0.049400058 0.048978813 0.037445955 -0.07722586 -0.08990523
-0.051405516 -0.07970152 0.026215024 -0.056781594 0.022370555 -0.010945715 -0.09527732 -0.08286542
-0.051397596 -0.04802821 0.04624609 0.082753934 0.074886836 0.07795372 -0.09212989 -0.07676701
-0.042469863 0.06545741 -0.09077674 -0.02636823 0.047458388 0.08059994 0.026694894 -2.899021e-05
-0.05312989 0.011259764 -0.010475993 0.046946175 -0.04531406 -0.025507376 -0.044594776 -0.040389393
-0.082663335 0.06105096 0.020026743 0.08078066 0.08268068 -0.050143432 -0.050252497 -0.049207825
0.004687205 -0.06462419 -0.0613811 -0.083368 0.05693782 -0.0057141706 -0.08832603 -0.045642026
-0.07360033 -0.06018174 -0.021614075 0.052627303 -0.00060080737 -0.07447981 0.0076948926 0.01736261
-0.057290506 0.035642274 0.06934052 0.09635953 -0.08018276 0.03373996 0.002451621 -0.063800156
0.061237313 0.07831479 0.07060375 -0.029949196 0.08855369 0.067990996 -0.008483008 -0.015520088
0.013004765 0.086416446 0.028509222 0.031486653 -0.010451853 0.08648708 0.0065156445 -0.07263836
0.0014916733 -0.033238746 -0.033739567 -0.037901532 -0.08886743 0.046145447 -0.06861669 -0.092170775
0.075887896 -0.063850336 0.072517954 0.066444494 -0.028898954 0.02732402 -0.03337436 -0.07456386
0.037869357 -0.012546986 -0.0045603663 -0.072834566 0.030675448 0.037009068 0.026838996 0.07490551
-0.015287638 -0.09286186 -0.07823359 -0.08524609 -0.043816973 0.0794731 0.05231627 0.030305393
0.033725627 0.08539895 0.09598551 0.06616662 -0.017533556 0.047279544 -0.016608782 0.013044514
-0.07815918 -0.002518341 -0.052351065 0.02206865 0.08510787 -0.09009732 0.07106166 -0.08356809
0.09268721 0.044154145 0.032819636 -0.019578114 -0.0029980019 0.08724386 0.026026018 0.026694544
0.072376646 -0.02096381 -0.06959006 -0.038913704 -0.030111417 -0.095313 -0.007490188 -0.09054465
0.009671964 0.0336029 -0.009381354 -0.019269101 -0.05296437 0.0023797452 0.01333905 0.042672716
-0.005326763 0.09392626 0.092995234 -0.003170997 -0.0036549792 0.07649084 0.016738892 -0.013728254
-0.06280863 -0.006408602 0.0045625046 -0.010959186 -0.011396013 -0.06581999 0.080529414 -0.062276125
0.05355092 0.016996868 -0.09192663 0.07441931 0.06398874 -0.06915537 -0.0034398213 0.07158253
-0.01086352 -0.059268367 -0.018866658 0.08069674 0.014972523 0.037528656 0.0042391345 0.004491739
00000000: 6426 fabc c264 193d d0cb 63bc 17a3 be3d
00000010: 58eb 91bc f4a9 fd3c 105b 0abd f502 9bbd
00000020: 26bf 2b3d c0a8 3dbd 40a1 1b3c 8772 a03d
00000030: addb 66bd b22b 223d 0044 d8bc f872 a1bd
00000040: 7da3 a43d 7eae 49bd 9c54 ba3c 3780 c0bd
00000050: 73fe 9dbd 04e7 50bd eb86 9fbd 18ef 4bbc
00000060: 5117 c0bd f5c5 8d3d aae0 053d 509e 3b3c
00000070: bb76 863d a0d9 173c f06a 813c 20ad 9dbc
00000080: 78dc 213c 00fe 543b 7b6f a53d 5c57 a3bc
00000090: ffe2 50bd 6299 763d 75bd be3d 3e0d 43bd
000000a0: 3a83 123d e3fa 883d e29b 5e3d 5c97 cbbc
000000b0: 8c4f ae3c b19c c13d 7a57 1b3d 8c2e 7ebd
000000c0: f125 2cbd e034 5a3b 62bc 6f3d ea8a 80bd
000000d0: e30d 903d d4bc e1bc bf0c 6ebd e998 9e3d
000000e0: 2449 ebbc 80b8 eebc 5e5f 233d 91c5 bf3d
000000f0: 1ada 6b3d eb5d 893d 7ca7 96bc 00b9 a93b
00000100: 404b c9bb ee9d 3c3d fec7 783d b757 4abd
00000110: 029e 483d ee60 193d 9728 9ebd 3c20 b8bd
00000120: 978e 52bd 8d3a a3bd e4c0 d63c d193 68bd
00000130: 7442 b73c a855 33bc c120 c3bd 58b5 a9bd
00000140: 4986 52bd 3ab9 44bd 8a6c 3d3d e57a a93d
00000150: 455e 993d 33a6 9f3d 99ae bcbd 0638 9dbd
00000160: e1f4 2dbd 890e 863d 28e9 b9bd 3002 d8bc
00000170: ba63 423d 9511 a53d 40af da3c 0030 f3b7
00000180: ba9e 59bd e07a 383c 80a3 2bbc a24a 403d
00000190: 3c9b 39bd d8f4 d0bc 03a9 36bd 596f 25bd
000001a0: 654b a9bd 9210 7a3d 200f a43c 5570 a53d
000001b0: 7d54 a93d 3363 4dbd 90d5 4dbd 258e 49bd
000001c0: 2097 993b b059 84bd c06a 7bbd d8bc aabd
000001d0: a237 693d f03d bbbb 47e4 b4bd 22f3 3abd
000001e0: c5bb 96bd 2181 76bd 0010 b1bc ba8f 573d
000001f0: 807f 1dba df88 98bd 7025 fc3b 083c 8e3c
00000200: 73a9 6abd a2fd 113d 6702 8e3d 2558 c53d
00000210: dc36 a4bd ea32 0a3d 60ab 203b a8a9 82bd
00000220: fad3 7a3d 8163 a03d b398 903d 0458 f5bc
00000230: a35b b53d dd3e 8b3d 50fc 0abc f847 7ebc
00000240: f011 553c 1bfb b03d 2c8c e93c 26f8 003d
00000250: 403e 2bbc 2320 b13d 3081 d53b 6cc3 94bd
00000260: 4084 c33a 5a25 08bd 8032 0abd a33e 1bbd
00000270: 2100 b6bd 0203 3d3d e886 8cbd 08c4 bcbd
00000280: 1d6b 9b3d f7c3 82bd 4b84 943d 0d14 883d
00000290: 80bd ecbc a0d6 df3c 8eb3 08bd f0b4 98bd
000002a0: e61c 1b3d e091 4dbc 206f 95bb 4a2a 95bd
000002b0: 144b fb3c d296 173d 74dd db3c 0f68 993d
000002c0: 0079 7abc 5c2e bebd ef38 a0bd 8195 aebd
000002d0: 6d79 33bd cbc2 a23d 9649 563d 0443 f83c
000002e0: e223 0a3d a5e5 ae3d 0d94 c43d 5d82 873d
000002f0: 88a2 8fbc 32a8 413d 240f 88bc a8b8 553c
00000300: ec11 a0bd c00a 25bb 126e 56bd 50c9 b43c
00000310: 094d ae3d f284 b8bd c788 913d bf25 abbd
00000320: cbd2 bd3d fada 343d e26d 063d 4862 a0bc
00000330: 207a 44bb e9ac b23d 8434 d53c 84ae da3c
00000340: 353a 943d 4cbc abbc 3c85 8ebd fa63 1fbd
00000350: 38ac f6bc 7633 c3bd 4070 f5bb 796f b9bd
00000360: 2877 1e3c 32a3 093d 40b4 19bc 3cda 9dbc
00000370: 2bf1 58bd 80f5 1b3b 088c 5a3c 96c9 2e3d
00000380: 208c aebb 695c c03d 4974 be3d 80d0 4fbb
00000390: 6088 6fbb 3ba7 9c3d 0020 893c 78ec 60bc
000003a0: d0a1 80bd 40ff d1bb 1081 953b 288e 33bc
000003b0: 58b6 3abc a2cc 86bd 9bec a43d 4015 7fbd
000003c0: 3658 5b3d 043d 8b3c 0744 bcbd 2769 983d
000003d0: 870c 833d 55a1 8dbd a06e 61bb dd99 923d
000003e0: e8fc 31bc 63c3 72bd 408e 9abc 5544 a53d
000003f0: 504f 753c a6b7 193d 70e8 8a3b 702f 933b

sequential/dense_1/MatMul f4 [64, 128]
0.15376131 -0.087643184 -0.03335141 0.12355966 0.111845985 -0.13400567 0.051769942 0.12347754
0.09575469 0.16969101 0.11200024 0.08260803 -0.14076373 0.054354265 0.17378448 -4.622669e-05
0.0010293002 -0.061557915 0.07603191 0.10172929 0.009114131 -0.066430196 0.09889345 0.08961727
-0.0070393234 -0.16987954 -0.111635216 -0.08355617 -0.12835401 -0.0944829 0.16234212 -0.029673846
0.07870771 -0.11646805 0.013848534 0.054962993 0.012325416 -0.12343044 0.06899637 0.15616056
0.093933426 0.17014991 0.10177781 0.005376175 0.0663171 0.09218328 -0.09849003 0.09586571
0.052144844 -0.14298074 -0.08069585 -0.04565286 0.06548997 0.08911223 -0.05007373 0.16997734
-0.06535643 -0.05695527 0.14974393 -0.15214708 0.12941642 0.075249955 -0.17015485 -0.07828908
0.12866275 0.015651777 0.04286942 0.15906851 0.028325353 0.06636111 -0.15550177 0.12498419
0.08790295 0.051420286 0.09930385 0.012642559 -0.15295963 0.12273218 -0.11389283 -0.10173545
-0.022244845 0.062111493 0.09790614 0.03827258 -0.031404924 -0.08786184 -0.19120438 -0.07548872
-0.09529296 -0.15915467 0.05723031 0.14349344 -0.073583804 -0.16168492 0.070608266 -0.020802721
-0.15269867 -0.001149726 0.0066846255 -0.055216037 -0.07266766 -0.01425838 -0.15198559 0.03891251
0.09914 0.16648152 -0.15053254 0.13285221 -0.03826856 -0.06445733 -0.0324225 0.023432033
-0.14104012 0.11860479 0.03122504 0.16492595 -0.159196 -0.0049590133 -0.0406103 -0.107999526
0.019664034 -0.17963593 -0.13155383 -0.03544628 0.11502343 -0.07707012 0.14324234 0.14663766
-0.039423913 -0.07019836 -0.06498509 -0.17139353 0.10914259 -0.04682511 0.0637579 -0.040865794
0.13520788 0.17172395 0.059769243 0.12623335 -0.05739802 0.12753578 0.016395971 0.105764404
-0.17675786 0.107991084 0.05490592 0.12863876 -0.11634435 -0.075005755 0.069352254 0.024072513
-0.03395249 -0.021378309 0.08567102 0.049416125 -0.095742635 -0.13823411 -0.13947657 -0.10570315
0.0719756 0.16866459 0.14208515 -0.020466968 0.10999532 -0.12872967 0.14263172 -0.13884458
-0.011312515 0.12209837 0.062110886 0.053306118 -0.1421915 0.0874791 0.04998739 -0.038625106
0.055906653 -0.1758613 0.09266822 0.015971541 -0.09329765 -0.13667409 0.057424992 0.16892205
0.048277482 0.03837706 -0.05686339 0.1036012 -0.09816502 -0.12714267 0.16680665 -0.12863024
0.040203586 0.0266556 0.1555141 -0.091045745 -0.07005151 -0.07507997 0.115490034 -0.13248166
-0.10643461 0.14075632 -0.0876917 -0.034422934 -0.0037416667 -0.13043952 -0.050986096 -0.14001764
-0.14553833 -0.13993159 -0.1381038 0.06038627 -0.08023765 0.048276097 -0.09093836 -0.03874597
-0.053451136 -0.12414771 -0.11640909 -0.03995867 -0.12458764 0.11067943 0.087170884 0.09771128
0.17220278 -0.1179587 0.13935287 -0.043554842 -0.004480377 -0.023334175 0.14313947 -0.05998352
-0.03426075 0.07035644 -0.14844896 0.02881816 -0.017169073 0.093453035 -0.15623967 -0.15925342
-0.13657105 -0.13392793 -0.17023875 -0.099456064 -0.07691509 0.13338937 -0.13215452 -0.02923347
0.08645232 -0.041778818 -0.17131177 0.11808817 0.097374216 0.029037237 0.03717479 -0.0940021
00000000: 9b73 1d3e 457e b3bd 7d9b 08bd d90c fd3d
00000010: 820f e53d c838 09be b80c 543d cbe1 fc3d
00000020: 091b c43d 7bc3 2d3e 6260 e53d 662e a93d
00000030: 5e24 10be 94a2 5e3d 8ff4 313e 88e3 41b8
00000040: 95e9 863a 2724 7cbd 9eb6 9b3d 7257 d03d
00000050: 7053 153c 8e0c 88bd a688 ca3d 4289 b73d
00000060: 20aa e6bb e7f4 2dbe 01a1 e4bd 7f1f abbd
00000070: 3c6f 03be 4080 c1bd 033d 263e 9116 f3bc
00000080: 8231 a13d cd86 eebd f6e4 623c e020 613d
00000090: 8bf0 493c 19c9 fcbd f84d 8d3d 8ee8 1f3e
000000a0: 2b60 c03d c73b 2e3e e270 d03d a02a b03b
000000b0: 42d1 873d 96ca bc3d 24b5 c9bd 3e55 c43d
000000c0: d595 553d 8b69 12be de43 a5bd 7efe 3abd
000000d0: 9b1f 863d 7980 b63d 1d1a 4dbd 8a0e 2e3e
000000e0: 98d9 85bd ee49 69bd 7956 193e 72cc 1bbe
000000f0: bd85 043e a61c 9a3d 133d 2ebe 0656 a0bd
00000100: 2bc0 033e 2838 803c d897 2f3d dbe2 223e
00000110: 920a e83c 55e8 873d db3b 1fbe b6f7 ff3d
00000120: 7606 b43d 149e 523d d15f cb3d bc22 4f3c
00000130: 73a1 1cbe 025b fb3d a540 e9bd ad5a d0bd
00000140: d23a b6bc 9f68 7e3d 0483 c83d b5c3 1c3d
00000150: 73a2 00bd e9f0 b3bd 15cb 43be d499 9abd
00000160: f528 c3bd 71f9 22be 546a 6a3d f2ef 123e
00000170: 1bb3 96bd bb90 25be 119b 903d 786a aabc
00000180: 0a5d 1cbe 67b2 96ba b40a db3b 362a 62bd
00000190: c8d2 94bd fb9b 69bc 1ca2 1bbe b962 1f3d
000001a0: ea09 cb3d 227a 2a3e 3425 1abe 690a 083e
000001b0: 7ebf 1cbd 3402 84bd 75cd 04bd 89f4 bf3c
000001c0: d26c 10be 11e7 f23d a8cb ff3c 59e2 283e
000001d0: 4704 23be 387f a2bb fc56 26bd db2e ddbd
000001e0: 7816 a13c 7bf2 37be 0cb6 06be 1e30 11bd
000001f0: 6791 eb3d f0d6 9dbd 1fae 123e 2f28 163e
00000200: f87a 21bd 28c4 8fbd e716 85bd c981 2fbe
00000210: 2686 df3d b0cb 3fbd 8093 823d e462 27bd
00000220: ef73 0a3e 67d8 2f3e 98d0 743d 5143 013e
00000230: 301a 6bbd bd98 023e d850 863c 029b d83d
00000240: 0300 35be 6e2a dd3d 08e5 603d e1b9 033e
00000250: f245 eebd 9e9c 99bd 8e08 8e3d b833 c53c
00000260: c411 0bbd 9021 afbc 4a74 af3d 9068 4a3d
00000270: b714 c4bd 3e8d 0dbe f2d2 0ebe e57a d8bd
00000280: f267 933d 69b6 2c3e c57e 113e 58aa a7bc
00000290: 3a45 e13d b6d1 03be 0d0e 123e 462d 0ebe
000002a0: 2058 39bc b60e fa3d fc67 7e3d 8457 5a3d
000002b0: a69a 11be 3e28 b33d 94bf 4c3d 5c35 1ebd
000002c0: 60fe 643d fc14 34be d6c8 bd3d c0d6 823c
000002d0: d712 bfbd 4bf4 0bbe 7836 6b3d e7f9 2c3e
000002e0: 9cbe 453d 4431 1d3d 96e9 68bd de2c d43d
000002f0: be0a c9bd b031 02be 5dcf 2a3e a5b7 03be
00000300: 84ac 243d d85c da3c 173f 1f3e 3176 babd
00000310: 2b77 8fbd 87c3 99bd 0a86 ec3d 46a9 07be
00000320: 64fa d9bd 6d22 103e b597 b3bd 10ff 0cbd
00000330: c036 75bb f091 05be ccd6 50bd c960 0fbe
00000340: 0008 15be 3a4a 0fbe 156b 0dbe 9857 773d
00000350: a353 a4bd 28bd 453d e43d babd 18b4 1ebd
00000360: 94ef 5abd 2841 febd e467 eebd b4ab 23bd
00000370: ce27 ffbd e6ab e23d a686 b23d da1c c83d
00000380: ed55 303e 5594 f1bd 85b2 0e3e 9066 32bd
00000390: 20d0 92bb 5027 bfbc 2793 123e 48b1 75bd
000003a0: 0055 0cbd 0a17 903d 0103 18be 1014 ec3c
000003b0: 28a6 8cbc 4e64 bf3d 4bfd 1fbe 5413 23be
000003c0: 48d9 0bbe 6724 09be 1153 2ebe 9faf cbbd
000003d0: a985 9dbd 3997 083e 8453 07be 087b efbc
000003e0: ea0d b13d 4420 2bbd 5a6c 2fbe 36d8 f13d
000003f0: 226c c73d 80df ed3c 9844 183d 2c84 c0bd

sequential/dense_2/MatMul f4 [10, 64]
0.27591604 -0.14774868 -0.096326984 0.27445647 0.021110177 0.06167142 0.29532054 0.1303829
0.14368214 -0.08936437 0.12509847 0.18795478 -0.27200606 0.25616375 0.059718866 -0.21196617
-0.15648293 -0.24038161 0.028803892 -0.06763849 -0.18955763 0.26971975 0.18332034 0.014288815
0.092100754 -0.030651208 -0.25740385 0.013728812 0.15241864 -0.1034327 -0.15884818 -0.2846861
-0.23470892 0.15486468 -0.024008526 0.25750306 0.05593225 -0.08323722 -0.15451151 0.19240308
0.27330744 -0.04560379 0.23607557 -0.19109592 -0.013451397 -0.06872296 0.1904369 -0.031782117
-0.25177604 -0.2733507 -0.18037957 0.18830015 0.04052656 -0.05587237 -0.023433357 -0.15910135
-0.23677833 0.11828514 0.03996905 -0.07757154 -0.025703836 0.104756504 -0.14685838 -0.17600374
0.25522113 0.1597831 0.009765714 -0.22308157 -0.0820218 -0.11111341 -0.0633792 -0.28842545
0.19009872 -0.27034095 -0.07092759 -0.20322803 0.22990909 -0.0060288906 0.21929602 0.24784958
-0.12775773 0.044595897 -0.011334102 0.09536424 0.0232516 -0.26300934 0.1819017 0.13486092
0.26364344 -0.028748164 -0.007774549 0.17221928 -0.14467834 -0.20982994 -0.12586543 -0.16578367
-0.26659328 -0.17876554 0.25793737 0.12236761 -0.12514631 0.091437295 0.17273514 -0.27241486
-0.1635679 0.24027027 -0.014889174 0.08246621 -0.059725255 0.040853284 0.1777527 -0.0064845867
0.22971249 -0.05459182 -0.031655557 -0.28196356 0.15902562 -0.16625746 0.13533236 -0.028674245
0.0074252742 0.06313878 0.14210238 -0.17835672 0.1278989 -0.19629082 0.21076855 0.028028248
-0.021387178 -0.08353071 0.03845572 -0.02556932 -0.28032959 -0.18765397 0.11208662 -0.10478036
0.1530292 -0.041156583 0.19110264 0.254213 -0.02028129 0.21643505 0.09386408 0.16792782
0.19402562 -0.28005016 0.23364536 -0.10706351 0.27568492 0.22682442 0.27171865 0.06394049
0.1516986 -0.19190125 0.07213725 -0.11535372 -0.10502953 0.18106845 -0.14690661 0.20307529
0.20308325 0.043344986 -0.25775772 0.14584212 -0.14187413 -0.037345916 0.16458933 -0.074601166
-0.12387631 0.16469185 -0.070783876 0.24825889 -0.18641935 -0.049786728 0.24273883 -0.16324745
0.24595827 -0.07216723 -0.24501953 0.13670078 -0.20289147 -0.03329909 0.15966412 -0.04431507
0.18969184 0.10176975 0.20008026 0.11814198 -0.043427505 -0.19135149 0.18798143 0.17891808
-0.18111998 -0.22195984 -0.19443311 -0.1785365 0.26988122 -0.21714991 0.2816625 0.023230743
-0.2656055 0.08998377 0.18683548 0.11076873 0.1574963 -0.14310479 0.22740936 0.035756692
0.22025396 -0.21983652 -0.08275819 -0.27761653 0.18346791 0.105393425 0.12290742 0.2303459
0.18471374 -0.083831996 -0.17472585 -0.025169984 0.26743147 0.0041236803 -0.16746181 0.2252393
-0.2442986 -0.24506937 0.18217221 -0.22612669 0.1273162 -0.16376846 -0.20629466 -0.144193
-0.18874198 0.26812956 -0.17524604 -0.20364816 -0.11682335 0.22999974 -0.24940373 -0.18643276
0.061093118 0.15934744 -0.0007606603 -0.25848636 0.035503127 0.011681957 -0.03549507 0.1414954
0.22452016 -0.25422886 0.23329952 -0.06078662 0.19738507 0.12786306 -0.21600631 0.22122708
00000000: de44 8d3e 6e4b 17be 1547 c5bd 8f85 8c3e
00000010: 40ef ac3c 2c9b 7c3d 4134 973e 1883 053e
00000020: 6921 133e ab04 b7bd d019 003e 3877 403e
00000030: 6144 8bbe e527 833e c59b 743d a90d 59be
00000040: 103d 20be 9926 76be 24f6 eb3c 0c86 8abd
00000050: 651b 42be b518 8a3e 54b8 3b3e a21b 6a3c
00000060: 529f bc3d 3e18 fbbc 70ca 83be d0ee 603c
00000070: a213 1c3e 86d4 d3bd 19a9 22be 60c2 91be
00000080: 8957 70be d994 1e3e 87ad c4bc 71d7 833e
00000090: 3719 653d 4778 aabd 4438 1ebe 5005 453e
000000a0: f4ee 8b3e 0acb 3abd cbbd 713e a6ae 43be
000000b0: 4063 5cbc a0be 8cbd e401 433e f72d 02bd
000000c0: cae8 80be 9ff4 8bbe 6cb5 38be c1d1 403e
000000d0: 2eff 253d 6dda 64bd 50f7 bfbc 77eb 22be
000000e0: 0576 72be 7b3f f23d 96b6 233d d4dd 9ebd
000000f0: da90 d2bc 948a d63d 0b62 16be 533a 34be
00000100: 58ac 823e 2e9e 233e 6000 203c 7f6f 64be
00000110: 0cfb a7bd 6d8f e3bd f4cc 81bd 80ac 93be
00000120: 3da9 423e 216a 8abe 7c42 91bd 021b 50be
00000130: 4a6d 6b3e 008e c5bb 238f 603e 48cc 7d3e
00000140: ecd2 02be 30aa 363d abb2 39bc 544e c33d
00000150: 247a be3c 29a9 86be 7044 3a3e fb18 0a3e
00000160: 46fc 863e 4581 ebbc a5c1 febb 405a 303e
00000170: 8f26 14be a9dd 56be dee2 00be 32c3 29be
00000180: ea7e 88be 500e 37be 5e10 843e df9b fa3d
00000190: 5b26 00be 7a43 bb3d 7be1 303e f679 8bbe
000001a0: 587e 27be 6909 763e b9f1 73bc 0be4 a83d
000001b0: 78a2 74bd c655 273d ce04 363e a87c d4bb
000001c0: c039 6b3e ac9b 5fbd 42a9 01bd 875d 90be
000001d0: 9dd7 223e 653f 2abe 9194 0a3e 40e6 eabc
000001e0: b74f f33b e84e 813d 4983 113e 25a3 36be
000001f0: eef7 023e 7600 49be b6d3 573e 7f9b e53c
00000200: 2a34 afbc 2612 abbd bf83 1d3d c076 d1bc
00000210: 5c87 8fbe 5d28 40be ab8d e53d 1697 d6bd
00000220: b0b3 1c3e ce93 28bd 69b0 433e 3528 823e
00000230: f324 a6bc 26a1 5d3e d03b c03d 45f5 2b3e
00000240: a7ae 463e bc62 8fbe bb40 6f3e 1d44 dbbd
00000250: 9326 8d3e a944 683e b51e 8b3e 3bf3 823d
00000260: e156 1b3e c381 44be b2bc 933d 923e ecbd
00000270: b919 d7bd 026a 393e b06e 16be f8f2 4f3e
00000280: 0ef5 4f3e 838a 313d d2f8 83be a357 153e
00000290: 7447 11be 08f8 18bd 1b8a 283e 7fc8 98bd
000002a0: ddb2 fdbd fba4 283e 23f7 90bd 9437 7e3e
000002b0: b7e4 3ebe 2bed 4bbd 8790 783e 572a 27be
000002c0: 7cdc 7b3e 6acc 93bd 66e6 7abe 4afb 0b3e
000002d0: c8c2 4fbe a064 08bd fe7e 233e b883 35bd
000002e0: 943e 423e a96c d03d d7e1 4c3e 6cf4 f13d
000002f0: 0ae1 31bd a5f1 43be 347e 403e 4d36 373e
00000300: 8477 39be 7149 63be 7919 47be 46d2 36be
00000310: df2d 8a3e 8c5c 5ebe 1136 903e 664e be3c
00000320: 72fd 87be 6949 b83d cd51 3f3e b7da e23d
00000330: b646 213e 108a 12be 00de 683e 9c75 123d
00000340: 418a 613e d31c 61be 207d a9bd c123 8ebe
00000350: 03df 3b3e 82d8 d73d e3b6 fb3d ccdf 6b3e
00000360: 9925 3d3e 1cb0 abbd 55eb 32be 4831 cebc
00000370: c7ec 883e f01f 873b 1c7b 2bbe 22a5 663e
00000380: 6a29 7abe 77f3 7abe 5a8b 3a3e c18d 67be
00000390: 2e5f 023e ebb2 27be e83e 53be 54a7 13be
000003a0: 9445 41be 4748 893e b373 33be 2589 50be
000003b0: 1541 efbd 0d85 6b3e b163 7fbe 3be8 3ebe
000003c0: c73c 7a3d fa2b 233e 0c67 47ba 5358 84be
000003d0: ba6b 113d ae65 3f3c 4763 11bd 2ce4 103e
000003e0: 9de8 653e 492a 82be 12e6 6e3e 64fb 78bd
000003f0: 501f 4a3e 89ee 023e c230 5dbe 5a89 623e
